layer {
  name: "data"
  type: "CPMHandData"
  top: "data"
  top: "label"
  data_param {
    source: "D:/dataset/Hand/TopRHD/TopRHD/lmdb"
    batch_size: 10
    backend: LMDB
  }
  cpm_hand_transform_param {
    stride: 4
    max_rotate_degree: 40
    crop_size_x: 256
    crop_size_y: 256
    scale_prob: 1
    scale_min: 0.5
    scale_max: 1.1
    center_perterb_max: 20
    num_parts: 62
    np_in_lmdb: 21
    hand_padding: 1.2
    do_aug: true
  }
}
layer {
  name: "label_vec"
  type: "Slice"
  bottom: "label"
  top: "label_vec"
  top: "label_heat"
  slice_param {
    slice_point: 40
    axis: 1
  }
}
layer {
  name: "image"
  type: "Slice"
  bottom: "data"
  top: "image"
  top: "center_map"
  slice_param {
    slice_point: 3
    axis: 1
  }
}
layer {
  name: "conv0"
  type: "Convolution"
  bottom: "image"
  top: "conv0"
  param {
    lr_mult: 1
    decay_mult: 1
  }
  param {
    lr_mult: 2
    decay_mult: 0
  }
  convolution_param {
    num_output: 64
    pad: 3
    kernel_size: 7
    stride: 2
    weight_filler {
      type: "xavier"
      std: 0.01
    }
    bias_filler {
      type: "constant"
      value: 0
    }
  }
}
layer {
  name: "bn0"
  type: "BatchNorm"
  bottom: "conv0"
  top: "conv0"
  batch_norm_param {
    use_global_stats: false
  }
}
layer {
  name: "scale0"
  type: "Scale"
  bottom: "conv0"
  top: "conv0"
  scale_param {
    bias_term: true
  }
}
layer {
  name: "relu0"
  type: "ReLU"
  bottom: "conv0"
  top: "conv0"
}
layer {
  name: "res2a_branch1"
  type: "Convolution"
  bottom: "conv0"
  top: "res2a_branch1"
  param {
    lr_mult: 1
    decay_mult: 1
  }
  param {
    lr_mult: 2
    decay_mult: 0
  }
  convolution_param {
    num_output: 128
    pad: 0
    kernel_size: 1
    stride: 1
    weight_filler {
      type: "xavier"
      std: 0.01
    }
    bias_filler {
      type: "constant"
      value: 0.2
    }
  }
}
layer {
  name: "res2a_branch1_bn"
  type: "BatchNorm"
  bottom: "res2a_branch1"
  top: "res2a_branch1"
  batch_norm_param {
    use_global_stats: false
  }
}
layer {
  name: "res2a_branch1_scale"
  type: "Scale"
  bottom: "res2a_branch1"
  top: "res2a_branch1"
  scale_param {
    bias_term: true
  }
}
layer {
  name: "res2a_branch2a"
  type: "Convolution"
  bottom: "conv0"
  top: "res2a_branch2a"
  param {
    lr_mult: 1
    decay_mult: 1
  }
  param {
    lr_mult: 2
    decay_mult: 0
  }
  convolution_param {
    num_output: 64
    pad: 0
    kernel_size: 1
    stride: 1
    weight_filler {
      type: "xavier"
      std: 0.01
    }
    bias_filler {
      type: "constant"
      value: 0
    }
  }
}
layer {
  name: "res2a_branch2a_bn"
  type: "BatchNorm"
  bottom: "res2a_branch2a"
  top: "res2a_branch2a"
  batch_norm_param {
    use_global_stats: false
  }
}
layer {
  name: "res2a_branch2a_scale"
  type: "Scale"
  bottom: "res2a_branch2a"
  top: "res2a_branch2a"
  scale_param {
    bias_term: true
  }
}
layer {
  name: "res2a_branch2a_relu"
  type: "ReLU"
  bottom: "res2a_branch2a"
  top: "res2a_branch2a"
}
layer {
  name: "res2a_branch2b"
  type: "Convolution"
  bottom: "res2a_branch2a"
  top: "res2a_branch2b"
  param {
    lr_mult: 1
    decay_mult: 1
  }
  param {
    lr_mult: 2
    decay_mult: 0
  }
  convolution_param {
    num_output: 64
    pad: 1
    kernel_size: 3
    stride: 1
    weight_filler {
      type: "xavier"
      std: 0.01
    }
    bias_filler {
      type: "constant"
      value: 0
    }
  }
}
layer {
  name: "res2a_branch2b_bn"
  type: "BatchNorm"
  bottom: "res2a_branch2b"
  top: "res2a_branch2b"
  batch_norm_param {
    use_global_stats: false
  }
}
layer {
  name: "res2a_branch2b_scale"
  type: "Scale"
  bottom: "res2a_branch2b"
  top: "res2a_branch2b"
  scale_param {
    bias_term: true
  }
}
layer {
  name: "res2a_branch2b_relu"
  type: "ReLU"
  bottom: "res2a_branch2b"
  top: "res2a_branch2b"
}
layer {
  name: "res2a_branch2c"
  type: "Convolution"
  bottom: "res2a_branch2b"
  top: "res2a_branch2c"
  param {
    lr_mult: 1
    decay_mult: 1
  }
  param {
    lr_mult: 2
    decay_mult: 0
  }
  convolution_param {
    num_output: 128
    pad: 0
    kernel_size: 1
    stride: 1
    weight_filler {
      type: "xavier"
      std: 0.01
    }
    bias_filler {
      type: "constant"
      value: 0.2
    }
  }
}
layer {
  name: "res2a_branch2c_bn"
  type: "BatchNorm"
  bottom: "res2a_branch2c"
  top: "res2a_branch2c"
  batch_norm_param {
    use_global_stats: false
  }
}
layer {
  name: "res2a_branch2c_scale"
  type: "Scale"
  bottom: "res2a_branch2c"
  top: "res2a_branch2c"
  scale_param {
    bias_term: true
  }
}
layer {
  name: "res2a"
  type: "Eltwise"
  bottom: "res2a_branch1"
  bottom: "res2a_branch2c"
  top: "res2a"
  eltwise_param {
    operation: SUM
  }
}
layer {
  name: "res2a_relu"
  type: "ReLU"
  bottom: "res2a"
  top: "res2a"
}
layer {
  name: "pool0"
  type: "Pooling"
  bottom: "res2a"
  top: "pool0"
  pooling_param {
    pool: MAX
    kernel_size: 2
    stride: 2
  }
}
layer {
  name: "res3b0_branch2a"
  type: "Convolution"
  bottom: "pool0"
  top: "res3b0_branch2a"
  param {
    lr_mult: 1
    decay_mult: 1
  }
  param {
    lr_mult: 2
    decay_mult: 0
  }
  convolution_param {
    num_output: 128
    pad: 0
    kernel_size: 1
    stride: 1
    weight_filler {
      type: "xavier"
      std: 0.01
    }
    bias_filler {
      type: "constant"
      value: 0
    }
  }
}
layer {
  name: "res3b0_branch2a_bn"
  type: "BatchNorm"
  bottom: "res3b0_branch2a"
  top: "res3b0_branch2a"
  batch_norm_param {
    use_global_stats: false
  }
}
layer {
  name: "res3b0_branch2a_scale"
  type: "Scale"
  bottom: "res3b0_branch2a"
  top: "res3b0_branch2a"
  scale_param {
    bias_term: true
  }
}
layer {
  name: "res3b0_branch2a_relu"
  type: "ReLU"
  bottom: "res3b0_branch2a"
  top: "res3b0_branch2a"
}
layer {
  name: "res3b0_branch2b"
  type: "Convolution"
  bottom: "res3b0_branch2a"
  top: "res3b0_branch2b"
  param {
    lr_mult: 1
    decay_mult: 1
  }
  param {
    lr_mult: 2
    decay_mult: 0
  }
  convolution_param {
    num_output: 128
    pad: 1
    kernel_size: 3
    stride: 1
    weight_filler {
      type: "xavier"
      std: 0.01
    }
    bias_filler {
      type: "constant"
      value: 0
    }
  }
}
layer {
  name: "res3b0_branch2b_bn"
  type: "BatchNorm"
  bottom: "res3b0_branch2b"
  top: "res3b0_branch2b"
  batch_norm_param {
    use_global_stats: false
  }
}
layer {
  name: "res3b0_branch2b_scale"
  type: "Scale"
  bottom: "res3b0_branch2b"
  top: "res3b0_branch2b"
  scale_param {
    bias_term: true
  }
}
layer {
  name: "res3b0_branch2b_relu"
  type: "ReLU"
  bottom: "res3b0_branch2b"
  top: "res3b0_branch2b"
}
layer {
  name: "res3b0_branch2c"
  type: "Convolution"
  bottom: "res3b0_branch2b"
  top: "res3b0_branch2c"
  param {
    lr_mult: 1
    decay_mult: 1
  }
  param {
    lr_mult: 2
    decay_mult: 0
  }
  convolution_param {
    num_output: 128
    pad: 0
    kernel_size: 1
    stride: 1
    weight_filler {
      type: "xavier"
      std: 0.01
    }
    bias_filler {
      type: "constant"
      value: 0.2
    }
  }
}
layer {
  name: "res3b0_branch2c_bn"
  type: "BatchNorm"
  bottom: "res3b0_branch2c"
  top: "res3b0_branch2c"
  batch_norm_param {
    use_global_stats: false
  }
}
layer {
  name: "res3b0_branch2c_scale"
  type: "Scale"
  bottom: "res3b0_branch2c"
  top: "res3b0_branch2c"
  scale_param {
    bias_term: true
  }
}
layer {
  name: "res3b0"
  type: "Eltwise"
  bottom: "pool0"
  bottom: "res3b0_branch2c"
  top: "res3b0"
  eltwise_param {
    operation: SUM
  }
}
layer {
  name: "res3b0_relu"
  type: "ReLU"
  bottom: "res3b0"
  top: "res3b0"
}
layer {
  name: "res4b0_branch2a"
  type: "Convolution"
  bottom: "res3b0"
  top: "res4b0_branch2a"
  param {
    lr_mult: 1
    decay_mult: 1
  }
  param {
    lr_mult: 2
    decay_mult: 0
  }
  convolution_param {
    num_output: 128
    pad: 0
    kernel_size: 1
    stride: 1
    weight_filler {
      type: "xavier"
      std: 0.01
    }
    bias_filler {
      type: "constant"
      value: 0
    }
  }
}
layer {
  name: "res4b0_branch2a_bn"
  type: "BatchNorm"
  bottom: "res4b0_branch2a"
  top: "res4b0_branch2a"
  batch_norm_param {
    use_global_stats: false
  }
}
layer {
  name: "res4b0_branch2a_scale"
  type: "Scale"
  bottom: "res4b0_branch2a"
  top: "res4b0_branch2a"
  scale_param {
    bias_term: true
  }
}
layer {
  name: "res4b0_branch2a_relu"
  type: "ReLU"
  bottom: "res4b0_branch2a"
  top: "res4b0_branch2a"
}
layer {
  name: "res4b0_branch2b"
  type: "Convolution"
  bottom: "res4b0_branch2a"
  top: "res4b0_branch2b"
  param {
    lr_mult: 1
    decay_mult: 1
  }
  param {
    lr_mult: 2
    decay_mult: 0
  }
  convolution_param {
    num_output: 128
    pad: 1
    kernel_size: 3
    stride: 1
    weight_filler {
      type: "xavier"
      std: 0.01
    }
    bias_filler {
      type: "constant"
      value: 0
    }
  }
}
layer {
  name: "res4b0_branch2b_bn"
  type: "BatchNorm"
  bottom: "res4b0_branch2b"
  top: "res4b0_branch2b"
  batch_norm_param {
    use_global_stats: false
  }
}
layer {
  name: "res4b0_branch2b_scale"
  type: "Scale"
  bottom: "res4b0_branch2b"
  top: "res4b0_branch2b"
  scale_param {
    bias_term: true
  }
}
layer {
  name: "res4b0_branch2b_relu"
  type: "ReLU"
  bottom: "res4b0_branch2b"
  top: "res4b0_branch2b"
}
layer {
  name: "res4b0_branch2c"
  type: "Convolution"
  bottom: "res4b0_branch2b"
  top: "res4b0_branch2c"
  param {
    lr_mult: 1
    decay_mult: 1
  }
  param {
    lr_mult: 2
    decay_mult: 0
  }
  convolution_param {
    num_output: 128
    pad: 0
    kernel_size: 1
    stride: 1
    weight_filler {
      type: "xavier"
      std: 0.01
    }
    bias_filler {
      type: "constant"
      value: 0.2
    }
  }
}
layer {
  name: "res4b0_branch2c_bn"
  type: "BatchNorm"
  bottom: "res4b0_branch2c"
  top: "res4b0_branch2c"
  batch_norm_param {
    use_global_stats: false
  }
}
layer {
  name: "res4b0_branch2c_scale"
  type: "Scale"
  bottom: "res4b0_branch2c"
  top: "res4b0_branch2c"
  scale_param {
    bias_term: true
  }
}
layer {
  name: "res4b0"
  type: "Eltwise"
  bottom: "res3b0"
  bottom: "res4b0_branch2c"
  top: "res4b0"
  eltwise_param {
    operation: SUM
  }
}
layer {
  name: "res4b0_relu"
  type: "ReLU"
  bottom: "res4b0"
  top: "res4b0"
}
layer {
  name: "res5b0_branch2a"
  type: "Convolution"
  bottom: "res4b0"
  top: "res5b0_branch2a"
  param {
    lr_mult: 1
    decay_mult: 1
  }
  param {
    lr_mult: 2
    decay_mult: 0
  }
  convolution_param {
    num_output: 128
    pad: 0
    kernel_size: 1
    stride: 1
    weight_filler {
      type: "xavier"
      std: 0.01
    }
    bias_filler {
      type: "constant"
      value: 0
    }
  }
}
layer {
  name: "res5b0_branch2a_bn"
  type: "BatchNorm"
  bottom: "res5b0_branch2a"
  top: "res5b0_branch2a"
  batch_norm_param {
    use_global_stats: false
  }
}
layer {
  name: "res5b0_branch2a_scale"
  type: "Scale"
  bottom: "res5b0_branch2a"
  top: "res5b0_branch2a"
  scale_param {
    bias_term: true
  }
}
layer {
  name: "res5b0_branch2a_relu"
  type: "ReLU"
  bottom: "res5b0_branch2a"
  top: "res5b0_branch2a"
}
layer {
  name: "res5b0_branch2b"
  type: "Convolution"
  bottom: "res5b0_branch2a"
  top: "res5b0_branch2b"
  param {
    lr_mult: 1
    decay_mult: 1
  }
  param {
    lr_mult: 2
    decay_mult: 0
  }
  convolution_param {
    num_output: 128
    pad: 1
    kernel_size: 3
    stride: 1
    weight_filler {
      type: "xavier"
      std: 0.01
    }
    bias_filler {
      type: "constant"
      value: 0
    }
  }
}
layer {
  name: "res5b0_branch2b_bn"
  type: "BatchNorm"
  bottom: "res5b0_branch2b"
  top: "res5b0_branch2b"
  batch_norm_param {
    use_global_stats: false
  }
}
layer {
  name: "res5b0_branch2b_scale"
  type: "Scale"
  bottom: "res5b0_branch2b"
  top: "res5b0_branch2b"
  scale_param {
    bias_term: true
  }
}
layer {
  name: "res5b0_branch2b_relu"
  type: "ReLU"
  bottom: "res5b0_branch2b"
  top: "res5b0_branch2b"
}
layer {
  name: "res5b0_branch2c"
  type: "Convolution"
  bottom: "res5b0_branch2b"
  top: "res5b0_branch2c"
  param {
    lr_mult: 1
    decay_mult: 1
  }
  param {
    lr_mult: 2
    decay_mult: 0
  }
  convolution_param {
    num_output: 128
    pad: 0
    kernel_size: 1
    stride: 1
    weight_filler {
      type: "xavier"
      std: 0.01
    }
    bias_filler {
      type: "constant"
      value: 0.2
    }
  }
}
layer {
  name: "res5b0_branch2c_bn"
  type: "BatchNorm"
  bottom: "res5b0_branch2c"
  top: "res5b0_branch2c"
  batch_norm_param {
    use_global_stats: false
  }
}
layer {
  name: "res5b0_branch2c_scale"
  type: "Scale"
  bottom: "res5b0_branch2c"
  top: "res5b0_branch2c"
  scale_param {
    bias_term: true
  }
}
layer {
  name: "res5b0"
  type: "Eltwise"
  bottom: "res4b0"
  bottom: "res5b0_branch2c"
  top: "res5b0"
  eltwise_param {
    operation: SUM
  }
}
layer {
  name: "res5b0_relu"
  type: "ReLU"
  bottom: "res5b0"
  top: "res5b0"
}
layer {
  name: "pool1"
  type: "Pooling"
  bottom: "res4b0"
  top: "pool1"
  pooling_param {
    pool: MAX
    kernel_size: 2
    stride: 2
  }
}
layer {
  name: "res6b0_branch2a"
  type: "Convolution"
  bottom: "pool1"
  top: "res6b0_branch2a"
  param {
    lr_mult: 1
    decay_mult: 1
  }
  param {
    lr_mult: 2
    decay_mult: 0
  }
  convolution_param {
    num_output: 128
    pad: 0
    kernel_size: 1
    stride: 1
    weight_filler {
      type: "xavier"
      std: 0.01
    }
    bias_filler {
      type: "constant"
      value: 0
    }
  }
}
layer {
  name: "res6b0_branch2a_bn"
  type: "BatchNorm"
  bottom: "res6b0_branch2a"
  top: "res6b0_branch2a"
  batch_norm_param {
    use_global_stats: false
  }
}
layer {
  name: "res6b0_branch2a_scale"
  type: "Scale"
  bottom: "res6b0_branch2a"
  top: "res6b0_branch2a"
  scale_param {
    bias_term: true
  }
}
layer {
  name: "res6b0_branch2a_relu"
  type: "ReLU"
  bottom: "res6b0_branch2a"
  top: "res6b0_branch2a"
}
layer {
  name: "res6b0_branch2b"
  type: "Convolution"
  bottom: "res6b0_branch2a"
  top: "res6b0_branch2b"
  param {
    lr_mult: 1
    decay_mult: 1
  }
  param {
    lr_mult: 2
    decay_mult: 0
  }
  convolution_param {
    num_output: 128
    pad: 1
    kernel_size: 3
    stride: 1
    weight_filler {
      type: "xavier"
      std: 0.01
    }
    bias_filler {
      type: "constant"
      value: 0
    }
  }
}
layer {
  name: "res6b0_branch2b_bn"
  type: "BatchNorm"
  bottom: "res6b0_branch2b"
  top: "res6b0_branch2b"
  batch_norm_param {
    use_global_stats: false
  }
}
layer {
  name: "res6b0_branch2b_scale"
  type: "Scale"
  bottom: "res6b0_branch2b"
  top: "res6b0_branch2b"
  scale_param {
    bias_term: true
  }
}
layer {
  name: "res6b0_branch2b_relu"
  type: "ReLU"
  bottom: "res6b0_branch2b"
  top: "res6b0_branch2b"
}
layer {
  name: "res6b0_branch2c"
  type: "Convolution"
  bottom: "res6b0_branch2b"
  top: "res6b0_branch2c"
  param {
    lr_mult: 1
    decay_mult: 1
  }
  param {
    lr_mult: 2
    decay_mult: 0
  }
  convolution_param {
    num_output: 128
    pad: 0
    kernel_size: 1
    stride: 1
    weight_filler {
      type: "xavier"
      std: 0.01
    }
    bias_filler {
      type: "constant"
      value: 0.2
    }
  }
}
layer {
  name: "res6b0_branch2c_bn"
  type: "BatchNorm"
  bottom: "res6b0_branch2c"
  top: "res6b0_branch2c"
  batch_norm_param {
    use_global_stats: false
  }
}
layer {
  name: "res6b0_branch2c_scale"
  type: "Scale"
  bottom: "res6b0_branch2c"
  top: "res6b0_branch2c"
  scale_param {
    bias_term: true
  }
}
layer {
  name: "res6b0"
  type: "Eltwise"
  bottom: "pool1"
  bottom: "res6b0_branch2c"
  top: "res6b0"
  eltwise_param {
    operation: SUM
  }
}
layer {
  name: "res6b0_relu"
  type: "ReLU"
  bottom: "res6b0"
  top: "res6b0"
}
layer {
  name: "res7b0_branch2a"
  type: "Convolution"
  bottom: "res6b0"
  top: "res7b0_branch2a"
  param {
    lr_mult: 1
    decay_mult: 1
  }
  param {
    lr_mult: 2
    decay_mult: 0
  }
  convolution_param {
    num_output: 128
    pad: 0
    kernel_size: 1
    stride: 1
    weight_filler {
      type: "xavier"
      std: 0.01
    }
    bias_filler {
      type: "constant"
      value: 0
    }
  }
}
layer {
  name: "res7b0_branch2a_bn"
  type: "BatchNorm"
  bottom: "res7b0_branch2a"
  top: "res7b0_branch2a"
  batch_norm_param {
    use_global_stats: false
  }
}
layer {
  name: "res7b0_branch2a_scale"
  type: "Scale"
  bottom: "res7b0_branch2a"
  top: "res7b0_branch2a"
  scale_param {
    bias_term: true
  }
}
layer {
  name: "res7b0_branch2a_relu"
  type: "ReLU"
  bottom: "res7b0_branch2a"
  top: "res7b0_branch2a"
}
layer {
  name: "res7b0_branch2b"
  type: "Convolution"
  bottom: "res7b0_branch2a"
  top: "res7b0_branch2b"
  param {
    lr_mult: 1
    decay_mult: 1
  }
  param {
    lr_mult: 2
    decay_mult: 0
  }
  convolution_param {
    num_output: 128
    pad: 1
    kernel_size: 3
    stride: 1
    weight_filler {
      type: "xavier"
      std: 0.01
    }
    bias_filler {
      type: "constant"
      value: 0
    }
  }
}
layer {
  name: "res7b0_branch2b_bn"
  type: "BatchNorm"
  bottom: "res7b0_branch2b"
  top: "res7b0_branch2b"
  batch_norm_param {
    use_global_stats: false
  }
}
layer {
  name: "res7b0_branch2b_scale"
  type: "Scale"
  bottom: "res7b0_branch2b"
  top: "res7b0_branch2b"
  scale_param {
    bias_term: true
  }
}
layer {
  name: "res7b0_branch2b_relu"
  type: "ReLU"
  bottom: "res7b0_branch2b"
  top: "res7b0_branch2b"
}
layer {
  name: "res7b0_branch2c"
  type: "Convolution"
  bottom: "res7b0_branch2b"
  top: "res7b0_branch2c"
  param {
    lr_mult: 1
    decay_mult: 1
  }
  param {
    lr_mult: 2
    decay_mult: 0
  }
  convolution_param {
    num_output: 128
    pad: 0
    kernel_size: 1
    stride: 1
    weight_filler {
      type: "xavier"
      std: 0.01
    }
    bias_filler {
      type: "constant"
      value: 0.2
    }
  }
}
layer {
  name: "res7b0_branch2c_bn"
  type: "BatchNorm"
  bottom: "res7b0_branch2c"
  top: "res7b0_branch2c"
  batch_norm_param {
    use_global_stats: false
  }
}
layer {
  name: "res7b0_branch2c_scale"
  type: "Scale"
  bottom: "res7b0_branch2c"
  top: "res7b0_branch2c"
  scale_param {
    bias_term: true
  }
}
layer {
  name: "res7b0"
  type: "Eltwise"
  bottom: "res6b0"
  bottom: "res7b0_branch2c"
  top: "res7b0"
  eltwise_param {
    operation: SUM
  }
}
layer {
  name: "res7b0_relu"
  type: "ReLU"
  bottom: "res7b0"
  top: "res7b0"
}
layer {
  name: "pool2"
  type: "Pooling"
  bottom: "res6b0"
  top: "pool2"
  pooling_param {
    pool: MAX
    kernel_size: 2
    stride: 2
  }
}
layer {
  name: "res8b0_branch2a"
  type: "Convolution"
  bottom: "pool2"
  top: "res8b0_branch2a"
  param {
    lr_mult: 1
    decay_mult: 1
  }
  param {
    lr_mult: 2
    decay_mult: 0
  }
  convolution_param {
    num_output: 128
    pad: 0
    kernel_size: 1
    stride: 1
    weight_filler {
      type: "xavier"
      std: 0.01
    }
    bias_filler {
      type: "constant"
      value: 0
    }
  }
}
layer {
  name: "res8b0_branch2a_bn"
  type: "BatchNorm"
  bottom: "res8b0_branch2a"
  top: "res8b0_branch2a"
  batch_norm_param {
    use_global_stats: false
  }
}
layer {
  name: "res8b0_branch2a_scale"
  type: "Scale"
  bottom: "res8b0_branch2a"
  top: "res8b0_branch2a"
  scale_param {
    bias_term: true
  }
}
layer {
  name: "res8b0_branch2a_relu"
  type: "ReLU"
  bottom: "res8b0_branch2a"
  top: "res8b0_branch2a"
}
layer {
  name: "res8b0_branch2b"
  type: "Convolution"
  bottom: "res8b0_branch2a"
  top: "res8b0_branch2b"
  param {
    lr_mult: 1
    decay_mult: 1
  }
  param {
    lr_mult: 2
    decay_mult: 0
  }
  convolution_param {
    num_output: 128
    pad: 1
    kernel_size: 3
    stride: 1
    weight_filler {
      type: "xavier"
      std: 0.01
    }
    bias_filler {
      type: "constant"
      value: 0
    }
  }
}
layer {
  name: "res8b0_branch2b_bn"
  type: "BatchNorm"
  bottom: "res8b0_branch2b"
  top: "res8b0_branch2b"
  batch_norm_param {
    use_global_stats: false
  }
}
layer {
  name: "res8b0_branch2b_scale"
  type: "Scale"
  bottom: "res8b0_branch2b"
  top: "res8b0_branch2b"
  scale_param {
    bias_term: true
  }
}
layer {
  name: "res8b0_branch2b_relu"
  type: "ReLU"
  bottom: "res8b0_branch2b"
  top: "res8b0_branch2b"
}
layer {
  name: "res8b0_branch2c"
  type: "Convolution"
  bottom: "res8b0_branch2b"
  top: "res8b0_branch2c"
  param {
    lr_mult: 1
    decay_mult: 1
  }
  param {
    lr_mult: 2
    decay_mult: 0
  }
  convolution_param {
    num_output: 128
    pad: 0
    kernel_size: 1
    stride: 1
    weight_filler {
      type: "xavier"
      std: 0.01
    }
    bias_filler {
      type: "constant"
      value: 0.2
    }
  }
}
layer {
  name: "res8b0_branch2c_bn"
  type: "BatchNorm"
  bottom: "res8b0_branch2c"
  top: "res8b0_branch2c"
  batch_norm_param {
    use_global_stats: false
  }
}
layer {
  name: "res8b0_branch2c_scale"
  type: "Scale"
  bottom: "res8b0_branch2c"
  top: "res8b0_branch2c"
  scale_param {
    bias_term: true
  }
}
layer {
  name: "res8b0"
  type: "Eltwise"
  bottom: "pool2"
  bottom: "res8b0_branch2c"
  top: "res8b0"
  eltwise_param {
    operation: SUM
  }
}
layer {
  name: "res8b0_relu"
  type: "ReLU"
  bottom: "res8b0"
  top: "res8b0"
}
layer {
  name: "res9b0_branch2a"
  type: "Convolution"
  bottom: "res8b0"
  top: "res9b0_branch2a"
  param {
    lr_mult: 1
    decay_mult: 1
  }
  param {
    lr_mult: 2
    decay_mult: 0
  }
  convolution_param {
    num_output: 128
    pad: 0
    kernel_size: 1
    stride: 1
    weight_filler {
      type: "xavier"
      std: 0.01
    }
    bias_filler {
      type: "constant"
      value: 0
    }
  }
}
layer {
  name: "res9b0_branch2a_bn"
  type: "BatchNorm"
  bottom: "res9b0_branch2a"
  top: "res9b0_branch2a"
  batch_norm_param {
    use_global_stats: false
  }
}
layer {
  name: "res9b0_branch2a_scale"
  type: "Scale"
  bottom: "res9b0_branch2a"
  top: "res9b0_branch2a"
  scale_param {
    bias_term: true
  }
}
layer {
  name: "res9b0_branch2a_relu"
  type: "ReLU"
  bottom: "res9b0_branch2a"
  top: "res9b0_branch2a"
}
layer {
  name: "res9b0_branch2b"
  type: "Convolution"
  bottom: "res9b0_branch2a"
  top: "res9b0_branch2b"
  param {
    lr_mult: 1
    decay_mult: 1
  }
  param {
    lr_mult: 2
    decay_mult: 0
  }
  convolution_param {
    num_output: 128
    pad: 1
    kernel_size: 3
    stride: 1
    weight_filler {
      type: "xavier"
      std: 0.01
    }
    bias_filler {
      type: "constant"
      value: 0
    }
  }
}
layer {
  name: "res9b0_branch2b_bn"
  type: "BatchNorm"
  bottom: "res9b0_branch2b"
  top: "res9b0_branch2b"
  batch_norm_param {
    use_global_stats: false
  }
}
layer {
  name: "res9b0_branch2b_scale"
  type: "Scale"
  bottom: "res9b0_branch2b"
  top: "res9b0_branch2b"
  scale_param {
    bias_term: true
  }
}
layer {
  name: "res9b0_branch2b_relu"
  type: "ReLU"
  bottom: "res9b0_branch2b"
  top: "res9b0_branch2b"
}
layer {
  name: "res9b0_branch2c"
  type: "Convolution"
  bottom: "res9b0_branch2b"
  top: "res9b0_branch2c"
  param {
    lr_mult: 1
    decay_mult: 1
  }
  param {
    lr_mult: 2
    decay_mult: 0
  }
  convolution_param {
    num_output: 128
    pad: 0
    kernel_size: 1
    stride: 1
    weight_filler {
      type: "xavier"
      std: 0.01
    }
    bias_filler {
      type: "constant"
      value: 0.2
    }
  }
}
layer {
  name: "res9b0_branch2c_bn"
  type: "BatchNorm"
  bottom: "res9b0_branch2c"
  top: "res9b0_branch2c"
  batch_norm_param {
    use_global_stats: false
  }
}
layer {
  name: "res9b0_branch2c_scale"
  type: "Scale"
  bottom: "res9b0_branch2c"
  top: "res9b0_branch2c"
  scale_param {
    bias_term: true
  }
}
layer {
  name: "res9b0"
  type: "Eltwise"
  bottom: "res8b0"
  bottom: "res9b0_branch2c"
  top: "res9b0"
  eltwise_param {
    operation: SUM
  }
}
layer {
  name: "res9b0_relu"
  type: "ReLU"
  bottom: "res9b0"
  top: "res9b0"
}
layer {
  name: "pool3"
  type: "Pooling"
  bottom: "res8b0"
  top: "pool3"
  pooling_param {
    pool: MAX
    kernel_size: 2
    stride: 2
  }
}
layer {
  name: "res10b0_branch2a"
  type: "Convolution"
  bottom: "pool3"
  top: "res10b0_branch2a"
  param {
    lr_mult: 1
    decay_mult: 1
  }
  param {
    lr_mult: 2
    decay_mult: 0
  }
  convolution_param {
    num_output: 128
    pad: 0
    kernel_size: 1
    stride: 1
    weight_filler {
      type: "xavier"
      std: 0.01
    }
    bias_filler {
      type: "constant"
      value: 0
    }
  }
}
layer {
  name: "res10b0_branch2a_bn"
  type: "BatchNorm"
  bottom: "res10b0_branch2a"
  top: "res10b0_branch2a"
  batch_norm_param {
    use_global_stats: false
  }
}
layer {
  name: "res10b0_branch2a_scale"
  type: "Scale"
  bottom: "res10b0_branch2a"
  top: "res10b0_branch2a"
  scale_param {
    bias_term: true
  }
}
layer {
  name: "res10b0_branch2a_relu"
  type: "ReLU"
  bottom: "res10b0_branch2a"
  top: "res10b0_branch2a"
}
layer {
  name: "res10b0_branch2b"
  type: "Convolution"
  bottom: "res10b0_branch2a"
  top: "res10b0_branch2b"
  param {
    lr_mult: 1
    decay_mult: 1
  }
  param {
    lr_mult: 2
    decay_mult: 0
  }
  convolution_param {
    num_output: 128
    pad: 1
    kernel_size: 3
    stride: 1
    weight_filler {
      type: "xavier"
      std: 0.01
    }
    bias_filler {
      type: "constant"
      value: 0
    }
  }
}
layer {
  name: "res10b0_branch2b_bn"
  type: "BatchNorm"
  bottom: "res10b0_branch2b"
  top: "res10b0_branch2b"
  batch_norm_param {
    use_global_stats: false
  }
}
layer {
  name: "res10b0_branch2b_scale"
  type: "Scale"
  bottom: "res10b0_branch2b"
  top: "res10b0_branch2b"
  scale_param {
    bias_term: true
  }
}
layer {
  name: "res10b0_branch2b_relu"
  type: "ReLU"
  bottom: "res10b0_branch2b"
  top: "res10b0_branch2b"
}
layer {
  name: "res10b0_branch2c"
  type: "Convolution"
  bottom: "res10b0_branch2b"
  top: "res10b0_branch2c"
  param {
    lr_mult: 1
    decay_mult: 1
  }
  param {
    lr_mult: 2
    decay_mult: 0
  }
  convolution_param {
    num_output: 128
    pad: 0
    kernel_size: 1
    stride: 1
    weight_filler {
      type: "xavier"
      std: 0.01
    }
    bias_filler {
      type: "constant"
      value: 0.2
    }
  }
}
layer {
  name: "res10b0_branch2c_bn"
  type: "BatchNorm"
  bottom: "res10b0_branch2c"
  top: "res10b0_branch2c"
  batch_norm_param {
    use_global_stats: false
  }
}
layer {
  name: "res10b0_branch2c_scale"
  type: "Scale"
  bottom: "res10b0_branch2c"
  top: "res10b0_branch2c"
  scale_param {
    bias_term: true
  }
}
layer {
  name: "res10b0"
  type: "Eltwise"
  bottom: "pool3"
  bottom: "res10b0_branch2c"
  top: "res10b0"
  eltwise_param {
    operation: SUM
  }
}
layer {
  name: "res10b0_relu"
  type: "ReLU"
  bottom: "res10b0"
  top: "res10b0"
}
layer {
  name: "res11b0_branch2a"
  type: "Convolution"
  bottom: "res10b0"
  top: "res11b0_branch2a"
  param {
    lr_mult: 1
    decay_mult: 1
  }
  param {
    lr_mult: 2
    decay_mult: 0
  }
  convolution_param {
    num_output: 128
    pad: 0
    kernel_size: 1
    stride: 1
    weight_filler {
      type: "xavier"
      std: 0.01
    }
    bias_filler {
      type: "constant"
      value: 0
    }
  }
}
layer {
  name: "res11b0_branch2a_bn"
  type: "BatchNorm"
  bottom: "res11b0_branch2a"
  top: "res11b0_branch2a"
  batch_norm_param {
    use_global_stats: false
  }
}
layer {
  name: "res11b0_branch2a_scale"
  type: "Scale"
  bottom: "res11b0_branch2a"
  top: "res11b0_branch2a"
  scale_param {
    bias_term: true
  }
}
layer {
  name: "res11b0_branch2a_relu"
  type: "ReLU"
  bottom: "res11b0_branch2a"
  top: "res11b0_branch2a"
}
layer {
  name: "res11b0_branch2b"
  type: "Convolution"
  bottom: "res11b0_branch2a"
  top: "res11b0_branch2b"
  param {
    lr_mult: 1
    decay_mult: 1
  }
  param {
    lr_mult: 2
    decay_mult: 0
  }
  convolution_param {
    num_output: 128
    pad: 1
    kernel_size: 3
    stride: 1
    weight_filler {
      type: "xavier"
      std: 0.01
    }
    bias_filler {
      type: "constant"
      value: 0
    }
  }
}
layer {
  name: "res11b0_branch2b_bn"
  type: "BatchNorm"
  bottom: "res11b0_branch2b"
  top: "res11b0_branch2b"
  batch_norm_param {
    use_global_stats: false
  }
}
layer {
  name: "res11b0_branch2b_scale"
  type: "Scale"
  bottom: "res11b0_branch2b"
  top: "res11b0_branch2b"
  scale_param {
    bias_term: true
  }
}
layer {
  name: "res11b0_branch2b_relu"
  type: "ReLU"
  bottom: "res11b0_branch2b"
  top: "res11b0_branch2b"
}
layer {
  name: "res11b0_branch2c"
  type: "Convolution"
  bottom: "res11b0_branch2b"
  top: "res11b0_branch2c"
  param {
    lr_mult: 1
    decay_mult: 1
  }
  param {
    lr_mult: 2
    decay_mult: 0
  }
  convolution_param {
    num_output: 128
    pad: 0
    kernel_size: 1
    stride: 1
    weight_filler {
      type: "xavier"
      std: 0.01
    }
    bias_filler {
      type: "constant"
      value: 0.2
    }
  }
}
layer {
  name: "res11b0_branch2c_bn"
  type: "BatchNorm"
  bottom: "res11b0_branch2c"
  top: "res11b0_branch2c"
  batch_norm_param {
    use_global_stats: false
  }
}
layer {
  name: "res11b0_branch2c_scale"
  type: "Scale"
  bottom: "res11b0_branch2c"
  top: "res11b0_branch2c"
  scale_param {
    bias_term: true
  }
}
layer {
  name: "res11b0"
  type: "Eltwise"
  bottom: "res10b0"
  bottom: "res11b0_branch2c"
  top: "res11b0"
  eltwise_param {
    operation: SUM
  }
}
layer {
  name: "res11b0_relu"
  type: "ReLU"
  bottom: "res11b0"
  top: "res11b0"
}
layer {
  name: "pool4"
  type: "Pooling"
  bottom: "res10b0"
  top: "pool4"
  pooling_param {
    pool: MAX
    kernel_size: 2
    stride: 2
  }
}
layer {
  name: "res12b0_branch2a"
  type: "Convolution"
  bottom: "pool4"
  top: "res12b0_branch2a"
  param {
    lr_mult: 1
    decay_mult: 1
  }
  param {
    lr_mult: 2
    decay_mult: 0
  }
  convolution_param {
    num_output: 128
    pad: 0
    kernel_size: 1
    stride: 1
    weight_filler {
      type: "xavier"
      std: 0.01
    }
    bias_filler {
      type: "constant"
      value: 0
    }
  }
}
layer {
  name: "res12b0_branch2a_bn"
  type: "BatchNorm"
  bottom: "res12b0_branch2a"
  top: "res12b0_branch2a"
  batch_norm_param {
    use_global_stats: false
  }
}
layer {
  name: "res12b0_branch2a_scale"
  type: "Scale"
  bottom: "res12b0_branch2a"
  top: "res12b0_branch2a"
  scale_param {
    bias_term: true
  }
}
layer {
  name: "res12b0_branch2a_relu"
  type: "ReLU"
  bottom: "res12b0_branch2a"
  top: "res12b0_branch2a"
}
layer {
  name: "res12b0_branch2b"
  type: "Convolution"
  bottom: "res12b0_branch2a"
  top: "res12b0_branch2b"
  param {
    lr_mult: 1
    decay_mult: 1
  }
  param {
    lr_mult: 2
    decay_mult: 0
  }
  convolution_param {
    num_output: 128
    pad: 1
    kernel_size: 3
    stride: 1
    weight_filler {
      type: "xavier"
      std: 0.01
    }
    bias_filler {
      type: "constant"
      value: 0
    }
  }
}
layer {
  name: "res12b0_branch2b_bn"
  type: "BatchNorm"
  bottom: "res12b0_branch2b"
  top: "res12b0_branch2b"
  batch_norm_param {
    use_global_stats: false
  }
}
layer {
  name: "res12b0_branch2b_scale"
  type: "Scale"
  bottom: "res12b0_branch2b"
  top: "res12b0_branch2b"
  scale_param {
    bias_term: true
  }
}
layer {
  name: "res12b0_branch2b_relu"
  type: "ReLU"
  bottom: "res12b0_branch2b"
  top: "res12b0_branch2b"
}
layer {
  name: "res12b0_branch2c"
  type: "Convolution"
  bottom: "res12b0_branch2b"
  top: "res12b0_branch2c"
  param {
    lr_mult: 1
    decay_mult: 1
  }
  param {
    lr_mult: 2
    decay_mult: 0
  }
  convolution_param {
    num_output: 128
    pad: 0
    kernel_size: 1
    stride: 1
    weight_filler {
      type: "xavier"
      std: 0.01
    }
    bias_filler {
      type: "constant"
      value: 0.2
    }
  }
}
layer {
  name: "res12b0_branch2c_bn"
  type: "BatchNorm"
  bottom: "res12b0_branch2c"
  top: "res12b0_branch2c"
  batch_norm_param {
    use_global_stats: false
  }
}
layer {
  name: "res12b0_branch2c_scale"
  type: "Scale"
  bottom: "res12b0_branch2c"
  top: "res12b0_branch2c"
  scale_param {
    bias_term: true
  }
}
layer {
  name: "res12b0"
  type: "Eltwise"
  bottom: "pool4"
  bottom: "res12b0_branch2c"
  top: "res12b0"
  eltwise_param {
    operation: SUM
  }
}
layer {
  name: "res12b0_relu"
  type: "ReLU"
  bottom: "res12b0"
  top: "res12b0"
}
layer {
  name: "res13b0_branch2a"
  type: "Convolution"
  bottom: "res12b0"
  top: "res13b0_branch2a"
  param {
    lr_mult: 1
    decay_mult: 1
  }
  param {
    lr_mult: 2
    decay_mult: 0
  }
  convolution_param {
    num_output: 128
    pad: 0
    kernel_size: 1
    stride: 1
    weight_filler {
      type: "xavier"
      std: 0.01
    }
    bias_filler {
      type: "constant"
      value: 0
    }
  }
}
layer {
  name: "res13b0_branch2a_bn"
  type: "BatchNorm"
  bottom: "res13b0_branch2a"
  top: "res13b0_branch2a"
  batch_norm_param {
    use_global_stats: false
  }
}
layer {
  name: "res13b0_branch2a_scale"
  type: "Scale"
  bottom: "res13b0_branch2a"
  top: "res13b0_branch2a"
  scale_param {
    bias_term: true
  }
}
layer {
  name: "res13b0_branch2a_relu"
  type: "ReLU"
  bottom: "res13b0_branch2a"
  top: "res13b0_branch2a"
}
layer {
  name: "res13b0_branch2b"
  type: "Convolution"
  bottom: "res13b0_branch2a"
  top: "res13b0_branch2b"
  param {
    lr_mult: 1
    decay_mult: 1
  }
  param {
    lr_mult: 2
    decay_mult: 0
  }
  convolution_param {
    num_output: 128
    pad: 1
    kernel_size: 3
    stride: 1
    weight_filler {
      type: "xavier"
      std: 0.01
    }
    bias_filler {
      type: "constant"
      value: 0
    }
  }
}
layer {
  name: "res13b0_branch2b_bn"
  type: "BatchNorm"
  bottom: "res13b0_branch2b"
  top: "res13b0_branch2b"
  batch_norm_param {
    use_global_stats: false
  }
}
layer {
  name: "res13b0_branch2b_scale"
  type: "Scale"
  bottom: "res13b0_branch2b"
  top: "res13b0_branch2b"
  scale_param {
    bias_term: true
  }
}
layer {
  name: "res13b0_branch2b_relu"
  type: "ReLU"
  bottom: "res13b0_branch2b"
  top: "res13b0_branch2b"
}
layer {
  name: "res13b0_branch2c"
  type: "Convolution"
  bottom: "res13b0_branch2b"
  top: "res13b0_branch2c"
  param {
    lr_mult: 1
    decay_mult: 1
  }
  param {
    lr_mult: 2
    decay_mult: 0
  }
  convolution_param {
    num_output: 128
    pad: 0
    kernel_size: 1
    stride: 1
    weight_filler {
      type: "xavier"
      std: 0.01
    }
    bias_filler {
      type: "constant"
      value: 0.2
    }
  }
}
layer {
  name: "res13b0_branch2c_bn"
  type: "BatchNorm"
  bottom: "res13b0_branch2c"
  top: "res13b0_branch2c"
  batch_norm_param {
    use_global_stats: false
  }
}
layer {
  name: "res13b0_branch2c_scale"
  type: "Scale"
  bottom: "res13b0_branch2c"
  top: "res13b0_branch2c"
  scale_param {
    bias_term: true
  }
}
layer {
  name: "res13b0"
  type: "Eltwise"
  bottom: "res12b0"
  bottom: "res13b0_branch2c"
  top: "res13b0"
  eltwise_param {
    operation: SUM
  }
}
layer {
  name: "res13b0_relu"
  type: "ReLU"
  bottom: "res13b0"
  top: "res13b0"
}
layer {
  name: "res14b0_branch2a"
  type: "Convolution"
  bottom: "res13b0"
  top: "res14b0_branch2a"
  param {
    lr_mult: 1
    decay_mult: 1
  }
  param {
    lr_mult: 2
    decay_mult: 0
  }
  convolution_param {
    num_output: 128
    pad: 0
    kernel_size: 1
    stride: 1
    weight_filler {
      type: "xavier"
      std: 0.01
    }
    bias_filler {
      type: "constant"
      value: 0
    }
  }
}
layer {
  name: "res14b0_branch2a_bn"
  type: "BatchNorm"
  bottom: "res14b0_branch2a"
  top: "res14b0_branch2a"
  batch_norm_param {
    use_global_stats: false
  }
}
layer {
  name: "res14b0_branch2a_scale"
  type: "Scale"
  bottom: "res14b0_branch2a"
  top: "res14b0_branch2a"
  scale_param {
    bias_term: true
  }
}
layer {
  name: "res14b0_branch2a_relu"
  type: "ReLU"
  bottom: "res14b0_branch2a"
  top: "res14b0_branch2a"
}
layer {
  name: "res14b0_branch2b"
  type: "Convolution"
  bottom: "res14b0_branch2a"
  top: "res14b0_branch2b"
  param {
    lr_mult: 1
    decay_mult: 1
  }
  param {
    lr_mult: 2
    decay_mult: 0
  }
  convolution_param {
    num_output: 128
    pad: 1
    kernel_size: 3
    stride: 1
    weight_filler {
      type: "xavier"
      std: 0.01
    }
    bias_filler {
      type: "constant"
      value: 0
    }
  }
}
layer {
  name: "res14b0_branch2b_bn"
  type: "BatchNorm"
  bottom: "res14b0_branch2b"
  top: "res14b0_branch2b"
  batch_norm_param {
    use_global_stats: false
  }
}
layer {
  name: "res14b0_branch2b_scale"
  type: "Scale"
  bottom: "res14b0_branch2b"
  top: "res14b0_branch2b"
  scale_param {
    bias_term: true
  }
}
layer {
  name: "res14b0_branch2b_relu"
  type: "ReLU"
  bottom: "res14b0_branch2b"
  top: "res14b0_branch2b"
}
layer {
  name: "res14b0_branch2c"
  type: "Convolution"
  bottom: "res14b0_branch2b"
  top: "res14b0_branch2c"
  param {
    lr_mult: 1
    decay_mult: 1
  }
  param {
    lr_mult: 2
    decay_mult: 0
  }
  convolution_param {
    num_output: 128
    pad: 0
    kernel_size: 1
    stride: 1
    weight_filler {
      type: "xavier"
      std: 0.01
    }
    bias_filler {
      type: "constant"
      value: 0.2
    }
  }
}
layer {
  name: "res14b0_branch2c_bn"
  type: "BatchNorm"
  bottom: "res14b0_branch2c"
  top: "res14b0_branch2c"
  batch_norm_param {
    use_global_stats: false
  }
}
layer {
  name: "res14b0_branch2c_scale"
  type: "Scale"
  bottom: "res14b0_branch2c"
  top: "res14b0_branch2c"
  scale_param {
    bias_term: true
  }
}
layer {
  name: "res14b0"
  type: "Eltwise"
  bottom: "res13b0"
  bottom: "res14b0_branch2c"
  top: "res14b0"
  eltwise_param {
    operation: SUM
  }
}
layer {
  name: "res14b0_relu"
  type: "ReLU"
  bottom: "res14b0"
  top: "res14b0"
}
layer {
  name: "deconv0"
  type: "Deconvolution"
  bottom: "res14b0"
  top: "deconv0"
  param {
    lr_mult: 0
    decay_mult: 0
  }
  convolution_param {
    num_output: 128
    bias_term: false
    pad: 1
    kernel_size: 4
    stride: 2
    weight_filler {
      type: "bilinear"
    }
  }
}
layer {
  name: "add0"
  type: "Eltwise"
  bottom: "res11b0"
  bottom: "deconv0"
  top: "add0"
  eltwise_param {
    operation: SUM
  }
}
layer {
  name: "res15b0_branch2a"
  type: "Convolution"
  bottom: "add0"
  top: "res15b0_branch2a"
  param {
    lr_mult: 1
    decay_mult: 1
  }
  param {
    lr_mult: 2
    decay_mult: 0
  }
  convolution_param {
    num_output: 128
    pad: 0
    kernel_size: 1
    stride: 1
    weight_filler {
      type: "xavier"
      std: 0.01
    }
    bias_filler {
      type: "constant"
      value: 0
    }
  }
}
layer {
  name: "res15b0_branch2a_bn"
  type: "BatchNorm"
  bottom: "res15b0_branch2a"
  top: "res15b0_branch2a"
  batch_norm_param {
    use_global_stats: false
  }
}
layer {
  name: "res15b0_branch2a_scale"
  type: "Scale"
  bottom: "res15b0_branch2a"
  top: "res15b0_branch2a"
  scale_param {
    bias_term: true
  }
}
layer {
  name: "res15b0_branch2a_relu"
  type: "ReLU"
  bottom: "res15b0_branch2a"
  top: "res15b0_branch2a"
}
layer {
  name: "res15b0_branch2b"
  type: "Convolution"
  bottom: "res15b0_branch2a"
  top: "res15b0_branch2b"
  param {
    lr_mult: 1
    decay_mult: 1
  }
  param {
    lr_mult: 2
    decay_mult: 0
  }
  convolution_param {
    num_output: 128
    pad: 1
    kernel_size: 3
    stride: 1
    weight_filler {
      type: "xavier"
      std: 0.01
    }
    bias_filler {
      type: "constant"
      value: 0
    }
  }
}
layer {
  name: "res15b0_branch2b_bn"
  type: "BatchNorm"
  bottom: "res15b0_branch2b"
  top: "res15b0_branch2b"
  batch_norm_param {
    use_global_stats: false
  }
}
layer {
  name: "res15b0_branch2b_scale"
  type: "Scale"
  bottom: "res15b0_branch2b"
  top: "res15b0_branch2b"
  scale_param {
    bias_term: true
  }
}
layer {
  name: "res15b0_branch2b_relu"
  type: "ReLU"
  bottom: "res15b0_branch2b"
  top: "res15b0_branch2b"
}
layer {
  name: "res15b0_branch2c"
  type: "Convolution"
  bottom: "res15b0_branch2b"
  top: "res15b0_branch2c"
  param {
    lr_mult: 1
    decay_mult: 1
  }
  param {
    lr_mult: 2
    decay_mult: 0
  }
  convolution_param {
    num_output: 128
    pad: 0
    kernel_size: 1
    stride: 1
    weight_filler {
      type: "xavier"
      std: 0.01
    }
    bias_filler {
      type: "constant"
      value: 0.2
    }
  }
}
layer {
  name: "res15b0_branch2c_bn"
  type: "BatchNorm"
  bottom: "res15b0_branch2c"
  top: "res15b0_branch2c"
  batch_norm_param {
    use_global_stats: false
  }
}
layer {
  name: "res15b0_branch2c_scale"
  type: "Scale"
  bottom: "res15b0_branch2c"
  top: "res15b0_branch2c"
  scale_param {
    bias_term: true
  }
}
layer {
  name: "res15b0"
  type: "Eltwise"
  bottom: "add0"
  bottom: "res15b0_branch2c"
  top: "res15b0"
  eltwise_param {
    operation: SUM
  }
}
layer {
  name: "res15b0_relu"
  type: "ReLU"
  bottom: "res15b0"
  top: "res15b0"
}
layer {
  name: "deconv1"
  type: "Deconvolution"
  bottom: "res15b0"
  top: "deconv1"
  param {
    lr_mult: 0
    decay_mult: 0
  }
  convolution_param {
    num_output: 128
    bias_term: false
    pad: 1
    kernel_size: 4
    stride: 2
    weight_filler {
      type: "bilinear"
    }
  }
}
layer {
  name: "add1"
  type: "Eltwise"
  bottom: "res9b0"
  bottom: "deconv1"
  top: "add1"
  eltwise_param {
    operation: SUM
  }
}
layer {
  name: "res16b0_branch2a"
  type: "Convolution"
  bottom: "add1"
  top: "res16b0_branch2a"
  param {
    lr_mult: 1
    decay_mult: 1
  }
  param {
    lr_mult: 2
    decay_mult: 0
  }
  convolution_param {
    num_output: 128
    pad: 0
    kernel_size: 1
    stride: 1
    weight_filler {
      type: "xavier"
      std: 0.01
    }
    bias_filler {
      type: "constant"
      value: 0
    }
  }
}
layer {
  name: "res16b0_branch2a_bn"
  type: "BatchNorm"
  bottom: "res16b0_branch2a"
  top: "res16b0_branch2a"
  batch_norm_param {
    use_global_stats: false
  }
}
layer {
  name: "res16b0_branch2a_scale"
  type: "Scale"
  bottom: "res16b0_branch2a"
  top: "res16b0_branch2a"
  scale_param {
    bias_term: true
  }
}
layer {
  name: "res16b0_branch2a_relu"
  type: "ReLU"
  bottom: "res16b0_branch2a"
  top: "res16b0_branch2a"
}
layer {
  name: "res16b0_branch2b"
  type: "Convolution"
  bottom: "res16b0_branch2a"
  top: "res16b0_branch2b"
  param {
    lr_mult: 1
    decay_mult: 1
  }
  param {
    lr_mult: 2
    decay_mult: 0
  }
  convolution_param {
    num_output: 128
    pad: 1
    kernel_size: 3
    stride: 1
    weight_filler {
      type: "xavier"
      std: 0.01
    }
    bias_filler {
      type: "constant"
      value: 0
    }
  }
}
layer {
  name: "res16b0_branch2b_bn"
  type: "BatchNorm"
  bottom: "res16b0_branch2b"
  top: "res16b0_branch2b"
  batch_norm_param {
    use_global_stats: false
  }
}
layer {
  name: "res16b0_branch2b_scale"
  type: "Scale"
  bottom: "res16b0_branch2b"
  top: "res16b0_branch2b"
  scale_param {
    bias_term: true
  }
}
layer {
  name: "res16b0_branch2b_relu"
  type: "ReLU"
  bottom: "res16b0_branch2b"
  top: "res16b0_branch2b"
}
layer {
  name: "res16b0_branch2c"
  type: "Convolution"
  bottom: "res16b0_branch2b"
  top: "res16b0_branch2c"
  param {
    lr_mult: 1
    decay_mult: 1
  }
  param {
    lr_mult: 2
    decay_mult: 0
  }
  convolution_param {
    num_output: 128
    pad: 0
    kernel_size: 1
    stride: 1
    weight_filler {
      type: "xavier"
      std: 0.01
    }
    bias_filler {
      type: "constant"
      value: 0.2
    }
  }
}
layer {
  name: "res16b0_branch2c_bn"
  type: "BatchNorm"
  bottom: "res16b0_branch2c"
  top: "res16b0_branch2c"
  batch_norm_param {
    use_global_stats: false
  }
}
layer {
  name: "res16b0_branch2c_scale"
  type: "Scale"
  bottom: "res16b0_branch2c"
  top: "res16b0_branch2c"
  scale_param {
    bias_term: true
  }
}
layer {
  name: "res16b0"
  type: "Eltwise"
  bottom: "add1"
  bottom: "res16b0_branch2c"
  top: "res16b0"
  eltwise_param {
    operation: SUM
  }
}
layer {
  name: "res16b0_relu"
  type: "ReLU"
  bottom: "res16b0"
  top: "res16b0"
}
layer {
  name: "deconv2"
  type: "Deconvolution"
  bottom: "res16b0"
  top: "deconv2"
  param {
    lr_mult: 0
    decay_mult: 0
  }
  convolution_param {
    num_output: 128
    bias_term: false
    pad: 1
    kernel_size: 4
    stride: 2
    weight_filler {
      type: "bilinear"
    }
  }
}
layer {
  name: "add2"
  type: "Eltwise"
  bottom: "res7b0"
  bottom: "deconv2"
  top: "add2"
  eltwise_param {
    operation: SUM
  }
}
layer {
  name: "res17b0_branch2a"
  type: "Convolution"
  bottom: "add2"
  top: "res17b0_branch2a"
  param {
    lr_mult: 1
    decay_mult: 1
  }
  param {
    lr_mult: 2
    decay_mult: 0
  }
  convolution_param {
    num_output: 128
    pad: 0
    kernel_size: 1
    stride: 1
    weight_filler {
      type: "xavier"
      std: 0.01
    }
    bias_filler {
      type: "constant"
      value: 0
    }
  }
}
layer {
  name: "res17b0_branch2a_bn"
  type: "BatchNorm"
  bottom: "res17b0_branch2a"
  top: "res17b0_branch2a"
  batch_norm_param {
    use_global_stats: false
  }
}
layer {
  name: "res17b0_branch2a_scale"
  type: "Scale"
  bottom: "res17b0_branch2a"
  top: "res17b0_branch2a"
  scale_param {
    bias_term: true
  }
}
layer {
  name: "res17b0_branch2a_relu"
  type: "ReLU"
  bottom: "res17b0_branch2a"
  top: "res17b0_branch2a"
}
layer {
  name: "res17b0_branch2b"
  type: "Convolution"
  bottom: "res17b0_branch2a"
  top: "res17b0_branch2b"
  param {
    lr_mult: 1
    decay_mult: 1
  }
  param {
    lr_mult: 2
    decay_mult: 0
  }
  convolution_param {
    num_output: 128
    pad: 1
    kernel_size: 3
    stride: 1
    weight_filler {
      type: "xavier"
      std: 0.01
    }
    bias_filler {
      type: "constant"
      value: 0
    }
  }
}
layer {
  name: "res17b0_branch2b_bn"
  type: "BatchNorm"
  bottom: "res17b0_branch2b"
  top: "res17b0_branch2b"
  batch_norm_param {
    use_global_stats: false
  }
}
layer {
  name: "res17b0_branch2b_scale"
  type: "Scale"
  bottom: "res17b0_branch2b"
  top: "res17b0_branch2b"
  scale_param {
    bias_term: true
  }
}
layer {
  name: "res17b0_branch2b_relu"
  type: "ReLU"
  bottom: "res17b0_branch2b"
  top: "res17b0_branch2b"
}
layer {
  name: "res17b0_branch2c"
  type: "Convolution"
  bottom: "res17b0_branch2b"
  top: "res17b0_branch2c"
  param {
    lr_mult: 1
    decay_mult: 1
  }
  param {
    lr_mult: 2
    decay_mult: 0
  }
  convolution_param {
    num_output: 128
    pad: 0
    kernel_size: 1
    stride: 1
    weight_filler {
      type: "xavier"
      std: 0.01
    }
    bias_filler {
      type: "constant"
      value: 0.2
    }
  }
}
layer {
  name: "res17b0_branch2c_bn"
  type: "BatchNorm"
  bottom: "res17b0_branch2c"
  top: "res17b0_branch2c"
  batch_norm_param {
    use_global_stats: false
  }
}
layer {
  name: "res17b0_branch2c_scale"
  type: "Scale"
  bottom: "res17b0_branch2c"
  top: "res17b0_branch2c"
  scale_param {
    bias_term: true
  }
}
layer {
  name: "res17b0"
  type: "Eltwise"
  bottom: "add2"
  bottom: "res17b0_branch2c"
  top: "res17b0"
  eltwise_param {
    operation: SUM
  }
}
layer {
  name: "res17b0_relu"
  type: "ReLU"
  bottom: "res17b0"
  top: "res17b0"
}
layer {
  name: "deconv3"
  type: "Deconvolution"
  bottom: "res17b0"
  top: "deconv3"
  param {
    lr_mult: 0
    decay_mult: 0
  }
  convolution_param {
    num_output: 128
    bias_term: false
    pad: 1
    kernel_size: 4
    stride: 2
    weight_filler {
      type: "bilinear"
    }
  }
}
layer {
  name: "add3"
  type: "Eltwise"
  bottom: "res5b0"
  bottom: "deconv3"
  top: "add3"
  eltwise_param {
    operation: SUM
  }
}
layer {
  name: "res18b0_branch2a"
  type: "Convolution"
  bottom: "add3"
  top: "res18b0_branch2a"
  param {
    lr_mult: 1
    decay_mult: 1
  }
  param {
    lr_mult: 2
    decay_mult: 0
  }
  convolution_param {
    num_output: 128
    pad: 0
    kernel_size: 1
    stride: 1
    weight_filler {
      type: "xavier"
      std: 0.01
    }
    bias_filler {
      type: "constant"
      value: 0
    }
  }
}
layer {
  name: "res18b0_branch2a_bn"
  type: "BatchNorm"
  bottom: "res18b0_branch2a"
  top: "res18b0_branch2a"
  batch_norm_param {
    use_global_stats: false
  }
}
layer {
  name: "res18b0_branch2a_scale"
  type: "Scale"
  bottom: "res18b0_branch2a"
  top: "res18b0_branch2a"
  scale_param {
    bias_term: true
  }
}
layer {
  name: "res18b0_branch2a_relu"
  type: "ReLU"
  bottom: "res18b0_branch2a"
  top: "res18b0_branch2a"
}
layer {
  name: "res18b0_branch2b"
  type: "Convolution"
  bottom: "res18b0_branch2a"
  top: "res18b0_branch2b"
  param {
    lr_mult: 1
    decay_mult: 1
  }
  param {
    lr_mult: 2
    decay_mult: 0
  }
  convolution_param {
    num_output: 128
    pad: 1
    kernel_size: 3
    stride: 1
    weight_filler {
      type: "xavier"
      std: 0.01
    }
    bias_filler {
      type: "constant"
      value: 0
    }
  }
}
layer {
  name: "res18b0_branch2b_bn"
  type: "BatchNorm"
  bottom: "res18b0_branch2b"
  top: "res18b0_branch2b"
  batch_norm_param {
    use_global_stats: false
  }
}
layer {
  name: "res18b0_branch2b_scale"
  type: "Scale"
  bottom: "res18b0_branch2b"
  top: "res18b0_branch2b"
  scale_param {
    bias_term: true
  }
}
layer {
  name: "res18b0_branch2b_relu"
  type: "ReLU"
  bottom: "res18b0_branch2b"
  top: "res18b0_branch2b"
}
layer {
  name: "res18b0_branch2c"
  type: "Convolution"
  bottom: "res18b0_branch2b"
  top: "res18b0_branch2c"
  param {
    lr_mult: 1
    decay_mult: 1
  }
  param {
    lr_mult: 2
    decay_mult: 0
  }
  convolution_param {
    num_output: 128
    pad: 0
    kernel_size: 1
    stride: 1
    weight_filler {
      type: "xavier"
      std: 0.01
    }
    bias_filler {
      type: "constant"
      value: 0.2
    }
  }
}
layer {
  name: "res18b0_branch2c_bn"
  type: "BatchNorm"
  bottom: "res18b0_branch2c"
  top: "res18b0_branch2c"
  batch_norm_param {
    use_global_stats: false
  }
}
layer {
  name: "res18b0_branch2c_scale"
  type: "Scale"
  bottom: "res18b0_branch2c"
  top: "res18b0_branch2c"
  scale_param {
    bias_term: true
  }
}
layer {
  name: "res18b0"
  type: "Eltwise"
  bottom: "add3"
  bottom: "res18b0_branch2c"
  top: "res18b0"
  eltwise_param {
    operation: SUM
  }
}
layer {
  name: "res18b0_relu"
  type: "ReLU"
  bottom: "res18b0"
  top: "res18b0"
}
layer {
  name: "conv1"
  type: "Convolution"
  bottom: "res18b0"
  top: "conv1"
  param {
    lr_mult: 1
    decay_mult: 1
  }
  param {
    lr_mult: 2
    decay_mult: 0
  }
  convolution_param {
    num_output: 128
    pad: 0
    kernel_size: 1
    stride: 1
    weight_filler {
      type: "xavier"
      std: 0.01
    }
    bias_filler {
      type: "constant"
      value: 0
    }
  }
}
layer {
  name: "bn1"
  type: "BatchNorm"
  bottom: "conv1"
  top: "conv1"
  batch_norm_param {
    use_global_stats: false
  }
}
layer {
  name: "scale1"
  type: "Scale"
  bottom: "conv1"
  top: "conv1"
  scale_param {
    bias_term: true
  }
}
layer {
  name: "relu1"
  type: "ReLU"
  bottom: "conv1"
  top: "conv1"
}
layer {
  name: "conv2"
  type: "Convolution"
  bottom: "conv1"
  top: "conv2"
  param {
    lr_mult: 1
    decay_mult: 1
  }
  param {
    lr_mult: 2
    decay_mult: 0
  }
  convolution_param {
    num_output: 22
    pad: 0
    kernel_size: 1
    stride: 1
    weight_filler {
      type: "xavier"
      std: 0.01
    }
    bias_filler {
      type: "constant"
      value: 0
    }
  }
}
layer {
  name: "loss0"
  type: "EuclideanLoss"
  bottom: "conv2"
  bottom: "label_heat"
  top: "loss0"
}
layer {
  name: "conv3"
  type: "Convolution"
  bottom: "conv1"
  top: "conv3"
  param {
    lr_mult: 1
    decay_mult: 1
  }
  param {
    lr_mult: 2
    decay_mult: 0
  }
  convolution_param {
    num_output: 128
    pad: 0
    kernel_size: 1
    stride: 1
    weight_filler {
      type: "xavier"
      std: 0.01
    }
    bias_filler {
      type: "constant"
      value: 0
    }
  }
}
layer {
  name: "conv4"
  type: "Convolution"
  bottom: "conv2"
  top: "conv4"
  param {
    lr_mult: 1
    decay_mult: 1
  }
  param {
    lr_mult: 2
    decay_mult: 0
  }
  convolution_param {
    num_output: 128
    pad: 0
    kernel_size: 1
    stride: 1
    weight_filler {
      type: "xavier"
      std: 0.01
    }
    bias_filler {
      type: "constant"
      value: 0
    }
  }
}
layer {
  name: "add4"
  type: "Eltwise"
  bottom: "conv3"
  bottom: "conv4"
  top: "add4"
  eltwise_param {
    operation: SUM
  }
}
layer {
  name: "add5"
  type: "Eltwise"
  bottom: "add4"
  bottom: "res4b0"
  top: "add5"
  eltwise_param {
    operation: SUM
  }
}
layer {
  name: "res19b0_branch2a"
  type: "Convolution"
  bottom: "add5"
  top: "res19b0_branch2a"
  param {
    lr_mult: 1
    decay_mult: 1
  }
  param {
    lr_mult: 2
    decay_mult: 0
  }
  convolution_param {
    num_output: 128
    pad: 0
    kernel_size: 1
    stride: 1
    weight_filler {
      type: "xavier"
      std: 0.01
    }
    bias_filler {
      type: "constant"
      value: 0
    }
  }
}
layer {
  name: "res19b0_branch2a_bn"
  type: "BatchNorm"
  bottom: "res19b0_branch2a"
  top: "res19b0_branch2a"
  batch_norm_param {
    use_global_stats: false
  }
}
layer {
  name: "res19b0_branch2a_scale"
  type: "Scale"
  bottom: "res19b0_branch2a"
  top: "res19b0_branch2a"
  scale_param {
    bias_term: true
  }
}
layer {
  name: "res19b0_branch2a_relu"
  type: "ReLU"
  bottom: "res19b0_branch2a"
  top: "res19b0_branch2a"
}
layer {
  name: "res19b0_branch2b"
  type: "Convolution"
  bottom: "res19b0_branch2a"
  top: "res19b0_branch2b"
  param {
    lr_mult: 1
    decay_mult: 1
  }
  param {
    lr_mult: 2
    decay_mult: 0
  }
  convolution_param {
    num_output: 128
    pad: 1
    kernel_size: 3
    stride: 1
    weight_filler {
      type: "xavier"
      std: 0.01
    }
    bias_filler {
      type: "constant"
      value: 0
    }
  }
}
layer {
  name: "res19b0_branch2b_bn"
  type: "BatchNorm"
  bottom: "res19b0_branch2b"
  top: "res19b0_branch2b"
  batch_norm_param {
    use_global_stats: false
  }
}
layer {
  name: "res19b0_branch2b_scale"
  type: "Scale"
  bottom: "res19b0_branch2b"
  top: "res19b0_branch2b"
  scale_param {
    bias_term: true
  }
}
layer {
  name: "res19b0_branch2b_relu"
  type: "ReLU"
  bottom: "res19b0_branch2b"
  top: "res19b0_branch2b"
}
layer {
  name: "res19b0_branch2c"
  type: "Convolution"
  bottom: "res19b0_branch2b"
  top: "res19b0_branch2c"
  param {
    lr_mult: 1
    decay_mult: 1
  }
  param {
    lr_mult: 2
    decay_mult: 0
  }
  convolution_param {
    num_output: 128
    pad: 0
    kernel_size: 1
    stride: 1
    weight_filler {
      type: "xavier"
      std: 0.01
    }
    bias_filler {
      type: "constant"
      value: 0.2
    }
  }
}
layer {
  name: "res19b0_branch2c_bn"
  type: "BatchNorm"
  bottom: "res19b0_branch2c"
  top: "res19b0_branch2c"
  batch_norm_param {
    use_global_stats: false
  }
}
layer {
  name: "res19b0_branch2c_scale"
  type: "Scale"
  bottom: "res19b0_branch2c"
  top: "res19b0_branch2c"
  scale_param {
    bias_term: true
  }
}
layer {
  name: "res19b0"
  type: "Eltwise"
  bottom: "add5"
  bottom: "res19b0_branch2c"
  top: "res19b0"
  eltwise_param {
    operation: SUM
  }
}
layer {
  name: "res19b0_relu"
  type: "ReLU"
  bottom: "res19b0"
  top: "res19b0"
}
layer {
  name: "pool5"
  type: "Pooling"
  bottom: "add5"
  top: "pool5"
  pooling_param {
    pool: MAX
    kernel_size: 2
    stride: 2
  }
}
layer {
  name: "res20b0_branch2a"
  type: "Convolution"
  bottom: "pool5"
  top: "res20b0_branch2a"
  param {
    lr_mult: 1
    decay_mult: 1
  }
  param {
    lr_mult: 2
    decay_mult: 0
  }
  convolution_param {
    num_output: 128
    pad: 0
    kernel_size: 1
    stride: 1
    weight_filler {
      type: "xavier"
      std: 0.01
    }
    bias_filler {
      type: "constant"
      value: 0
    }
  }
}
layer {
  name: "res20b0_branch2a_bn"
  type: "BatchNorm"
  bottom: "res20b0_branch2a"
  top: "res20b0_branch2a"
  batch_norm_param {
    use_global_stats: false
  }
}
layer {
  name: "res20b0_branch2a_scale"
  type: "Scale"
  bottom: "res20b0_branch2a"
  top: "res20b0_branch2a"
  scale_param {
    bias_term: true
  }
}
layer {
  name: "res20b0_branch2a_relu"
  type: "ReLU"
  bottom: "res20b0_branch2a"
  top: "res20b0_branch2a"
}
layer {
  name: "res20b0_branch2b"
  type: "Convolution"
  bottom: "res20b0_branch2a"
  top: "res20b0_branch2b"
  param {
    lr_mult: 1
    decay_mult: 1
  }
  param {
    lr_mult: 2
    decay_mult: 0
  }
  convolution_param {
    num_output: 128
    pad: 1
    kernel_size: 3
    stride: 1
    weight_filler {
      type: "xavier"
      std: 0.01
    }
    bias_filler {
      type: "constant"
      value: 0
    }
  }
}
layer {
  name: "res20b0_branch2b_bn"
  type: "BatchNorm"
  bottom: "res20b0_branch2b"
  top: "res20b0_branch2b"
  batch_norm_param {
    use_global_stats: false
  }
}
layer {
  name: "res20b0_branch2b_scale"
  type: "Scale"
  bottom: "res20b0_branch2b"
  top: "res20b0_branch2b"
  scale_param {
    bias_term: true
  }
}
layer {
  name: "res20b0_branch2b_relu"
  type: "ReLU"
  bottom: "res20b0_branch2b"
  top: "res20b0_branch2b"
}
layer {
  name: "res20b0_branch2c"
  type: "Convolution"
  bottom: "res20b0_branch2b"
  top: "res20b0_branch2c"
  param {
    lr_mult: 1
    decay_mult: 1
  }
  param {
    lr_mult: 2
    decay_mult: 0
  }
  convolution_param {
    num_output: 128
    pad: 0
    kernel_size: 1
    stride: 1
    weight_filler {
      type: "xavier"
      std: 0.01
    }
    bias_filler {
      type: "constant"
      value: 0.2
    }
  }
}
layer {
  name: "res20b0_branch2c_bn"
  type: "BatchNorm"
  bottom: "res20b0_branch2c"
  top: "res20b0_branch2c"
  batch_norm_param {
    use_global_stats: false
  }
}
layer {
  name: "res20b0_branch2c_scale"
  type: "Scale"
  bottom: "res20b0_branch2c"
  top: "res20b0_branch2c"
  scale_param {
    bias_term: true
  }
}
layer {
  name: "res20b0"
  type: "Eltwise"
  bottom: "pool5"
  bottom: "res20b0_branch2c"
  top: "res20b0"
  eltwise_param {
    operation: SUM
  }
}
layer {
  name: "res20b0_relu"
  type: "ReLU"
  bottom: "res20b0"
  top: "res20b0"
}
layer {
  name: "res21b0_branch2a"
  type: "Convolution"
  bottom: "res20b0"
  top: "res21b0_branch2a"
  param {
    lr_mult: 1
    decay_mult: 1
  }
  param {
    lr_mult: 2
    decay_mult: 0
  }
  convolution_param {
    num_output: 128
    pad: 0
    kernel_size: 1
    stride: 1
    weight_filler {
      type: "xavier"
      std: 0.01
    }
    bias_filler {
      type: "constant"
      value: 0
    }
  }
}
layer {
  name: "res21b0_branch2a_bn"
  type: "BatchNorm"
  bottom: "res21b0_branch2a"
  top: "res21b0_branch2a"
  batch_norm_param {
    use_global_stats: false
  }
}
layer {
  name: "res21b0_branch2a_scale"
  type: "Scale"
  bottom: "res21b0_branch2a"
  top: "res21b0_branch2a"
  scale_param {
    bias_term: true
  }
}
layer {
  name: "res21b0_branch2a_relu"
  type: "ReLU"
  bottom: "res21b0_branch2a"
  top: "res21b0_branch2a"
}
layer {
  name: "res21b0_branch2b"
  type: "Convolution"
  bottom: "res21b0_branch2a"
  top: "res21b0_branch2b"
  param {
    lr_mult: 1
    decay_mult: 1
  }
  param {
    lr_mult: 2
    decay_mult: 0
  }
  convolution_param {
    num_output: 128
    pad: 1
    kernel_size: 3
    stride: 1
    weight_filler {
      type: "xavier"
      std: 0.01
    }
    bias_filler {
      type: "constant"
      value: 0
    }
  }
}
layer {
  name: "res21b0_branch2b_bn"
  type: "BatchNorm"
  bottom: "res21b0_branch2b"
  top: "res21b0_branch2b"
  batch_norm_param {
    use_global_stats: false
  }
}
layer {
  name: "res21b0_branch2b_scale"
  type: "Scale"
  bottom: "res21b0_branch2b"
  top: "res21b0_branch2b"
  scale_param {
    bias_term: true
  }
}
layer {
  name: "res21b0_branch2b_relu"
  type: "ReLU"
  bottom: "res21b0_branch2b"
  top: "res21b0_branch2b"
}
layer {
  name: "res21b0_branch2c"
  type: "Convolution"
  bottom: "res21b0_branch2b"
  top: "res21b0_branch2c"
  param {
    lr_mult: 1
    decay_mult: 1
  }
  param {
    lr_mult: 2
    decay_mult: 0
  }
  convolution_param {
    num_output: 128
    pad: 0
    kernel_size: 1
    stride: 1
    weight_filler {
      type: "xavier"
      std: 0.01
    }
    bias_filler {
      type: "constant"
      value: 0.2
    }
  }
}
layer {
  name: "res21b0_branch2c_bn"
  type: "BatchNorm"
  bottom: "res21b0_branch2c"
  top: "res21b0_branch2c"
  batch_norm_param {
    use_global_stats: false
  }
}
layer {
  name: "res21b0_branch2c_scale"
  type: "Scale"
  bottom: "res21b0_branch2c"
  top: "res21b0_branch2c"
  scale_param {
    bias_term: true
  }
}
layer {
  name: "res21b0"
  type: "Eltwise"
  bottom: "res20b0"
  bottom: "res21b0_branch2c"
  top: "res21b0"
  eltwise_param {
    operation: SUM
  }
}
layer {
  name: "res21b0_relu"
  type: "ReLU"
  bottom: "res21b0"
  top: "res21b0"
}
layer {
  name: "pool6"
  type: "Pooling"
  bottom: "res20b0"
  top: "pool6"
  pooling_param {
    pool: MAX
    kernel_size: 2
    stride: 2
  }
}
layer {
  name: "res22b0_branch2a"
  type: "Convolution"
  bottom: "pool6"
  top: "res22b0_branch2a"
  param {
    lr_mult: 1
    decay_mult: 1
  }
  param {
    lr_mult: 2
    decay_mult: 0
  }
  convolution_param {
    num_output: 128
    pad: 0
    kernel_size: 1
    stride: 1
    weight_filler {
      type: "xavier"
      std: 0.01
    }
    bias_filler {
      type: "constant"
      value: 0
    }
  }
}
layer {
  name: "res22b0_branch2a_bn"
  type: "BatchNorm"
  bottom: "res22b0_branch2a"
  top: "res22b0_branch2a"
  batch_norm_param {
    use_global_stats: false
  }
}
layer {
  name: "res22b0_branch2a_scale"
  type: "Scale"
  bottom: "res22b0_branch2a"
  top: "res22b0_branch2a"
  scale_param {
    bias_term: true
  }
}
layer {
  name: "res22b0_branch2a_relu"
  type: "ReLU"
  bottom: "res22b0_branch2a"
  top: "res22b0_branch2a"
}
layer {
  name: "res22b0_branch2b"
  type: "Convolution"
  bottom: "res22b0_branch2a"
  top: "res22b0_branch2b"
  param {
    lr_mult: 1
    decay_mult: 1
  }
  param {
    lr_mult: 2
    decay_mult: 0
  }
  convolution_param {
    num_output: 128
    pad: 1
    kernel_size: 3
    stride: 1
    weight_filler {
      type: "xavier"
      std: 0.01
    }
    bias_filler {
      type: "constant"
      value: 0
    }
  }
}
layer {
  name: "res22b0_branch2b_bn"
  type: "BatchNorm"
  bottom: "res22b0_branch2b"
  top: "res22b0_branch2b"
  batch_norm_param {
    use_global_stats: false
  }
}
layer {
  name: "res22b0_branch2b_scale"
  type: "Scale"
  bottom: "res22b0_branch2b"
  top: "res22b0_branch2b"
  scale_param {
    bias_term: true
  }
}
layer {
  name: "res22b0_branch2b_relu"
  type: "ReLU"
  bottom: "res22b0_branch2b"
  top: "res22b0_branch2b"
}
layer {
  name: "res22b0_branch2c"
  type: "Convolution"
  bottom: "res22b0_branch2b"
  top: "res22b0_branch2c"
  param {
    lr_mult: 1
    decay_mult: 1
  }
  param {
    lr_mult: 2
    decay_mult: 0
  }
  convolution_param {
    num_output: 128
    pad: 0
    kernel_size: 1
    stride: 1
    weight_filler {
      type: "xavier"
      std: 0.01
    }
    bias_filler {
      type: "constant"
      value: 0.2
    }
  }
}
layer {
  name: "res22b0_branch2c_bn"
  type: "BatchNorm"
  bottom: "res22b0_branch2c"
  top: "res22b0_branch2c"
  batch_norm_param {
    use_global_stats: false
  }
}
layer {
  name: "res22b0_branch2c_scale"
  type: "Scale"
  bottom: "res22b0_branch2c"
  top: "res22b0_branch2c"
  scale_param {
    bias_term: true
  }
}
layer {
  name: "res22b0"
  type: "Eltwise"
  bottom: "pool6"
  bottom: "res22b0_branch2c"
  top: "res22b0"
  eltwise_param {
    operation: SUM
  }
}
layer {
  name: "res22b0_relu"
  type: "ReLU"
  bottom: "res22b0"
  top: "res22b0"
}
layer {
  name: "res23b0_branch2a"
  type: "Convolution"
  bottom: "res22b0"
  top: "res23b0_branch2a"
  param {
    lr_mult: 1
    decay_mult: 1
  }
  param {
    lr_mult: 2
    decay_mult: 0
  }
  convolution_param {
    num_output: 128
    pad: 0
    kernel_size: 1
    stride: 1
    weight_filler {
      type: "xavier"
      std: 0.01
    }
    bias_filler {
      type: "constant"
      value: 0
    }
  }
}
layer {
  name: "res23b0_branch2a_bn"
  type: "BatchNorm"
  bottom: "res23b0_branch2a"
  top: "res23b0_branch2a"
  batch_norm_param {
    use_global_stats: false
  }
}
layer {
  name: "res23b0_branch2a_scale"
  type: "Scale"
  bottom: "res23b0_branch2a"
  top: "res23b0_branch2a"
  scale_param {
    bias_term: true
  }
}
layer {
  name: "res23b0_branch2a_relu"
  type: "ReLU"
  bottom: "res23b0_branch2a"
  top: "res23b0_branch2a"
}
layer {
  name: "res23b0_branch2b"
  type: "Convolution"
  bottom: "res23b0_branch2a"
  top: "res23b0_branch2b"
  param {
    lr_mult: 1
    decay_mult: 1
  }
  param {
    lr_mult: 2
    decay_mult: 0
  }
  convolution_param {
    num_output: 128
    pad: 1
    kernel_size: 3
    stride: 1
    weight_filler {
      type: "xavier"
      std: 0.01
    }
    bias_filler {
      type: "constant"
      value: 0
    }
  }
}
layer {
  name: "res23b0_branch2b_bn"
  type: "BatchNorm"
  bottom: "res23b0_branch2b"
  top: "res23b0_branch2b"
  batch_norm_param {
    use_global_stats: false
  }
}
layer {
  name: "res23b0_branch2b_scale"
  type: "Scale"
  bottom: "res23b0_branch2b"
  top: "res23b0_branch2b"
  scale_param {
    bias_term: true
  }
}
layer {
  name: "res23b0_branch2b_relu"
  type: "ReLU"
  bottom: "res23b0_branch2b"
  top: "res23b0_branch2b"
}
layer {
  name: "res23b0_branch2c"
  type: "Convolution"
  bottom: "res23b0_branch2b"
  top: "res23b0_branch2c"
  param {
    lr_mult: 1
    decay_mult: 1
  }
  param {
    lr_mult: 2
    decay_mult: 0
  }
  convolution_param {
    num_output: 128
    pad: 0
    kernel_size: 1
    stride: 1
    weight_filler {
      type: "xavier"
      std: 0.01
    }
    bias_filler {
      type: "constant"
      value: 0.2
    }
  }
}
layer {
  name: "res23b0_branch2c_bn"
  type: "BatchNorm"
  bottom: "res23b0_branch2c"
  top: "res23b0_branch2c"
  batch_norm_param {
    use_global_stats: false
  }
}
layer {
  name: "res23b0_branch2c_scale"
  type: "Scale"
  bottom: "res23b0_branch2c"
  top: "res23b0_branch2c"
  scale_param {
    bias_term: true
  }
}
layer {
  name: "res23b0"
  type: "Eltwise"
  bottom: "res22b0"
  bottom: "res23b0_branch2c"
  top: "res23b0"
  eltwise_param {
    operation: SUM
  }
}
layer {
  name: "res23b0_relu"
  type: "ReLU"
  bottom: "res23b0"
  top: "res23b0"
}
layer {
  name: "pool7"
  type: "Pooling"
  bottom: "res22b0"
  top: "pool7"
  pooling_param {
    pool: MAX
    kernel_size: 2
    stride: 2
  }
}
layer {
  name: "res24b0_branch2a"
  type: "Convolution"
  bottom: "pool7"
  top: "res24b0_branch2a"
  param {
    lr_mult: 1
    decay_mult: 1
  }
  param {
    lr_mult: 2
    decay_mult: 0
  }
  convolution_param {
    num_output: 128
    pad: 0
    kernel_size: 1
    stride: 1
    weight_filler {
      type: "xavier"
      std: 0.01
    }
    bias_filler {
      type: "constant"
      value: 0
    }
  }
}
layer {
  name: "res24b0_branch2a_bn"
  type: "BatchNorm"
  bottom: "res24b0_branch2a"
  top: "res24b0_branch2a"
  batch_norm_param {
    use_global_stats: false
  }
}
layer {
  name: "res24b0_branch2a_scale"
  type: "Scale"
  bottom: "res24b0_branch2a"
  top: "res24b0_branch2a"
  scale_param {
    bias_term: true
  }
}
layer {
  name: "res24b0_branch2a_relu"
  type: "ReLU"
  bottom: "res24b0_branch2a"
  top: "res24b0_branch2a"
}
layer {
  name: "res24b0_branch2b"
  type: "Convolution"
  bottom: "res24b0_branch2a"
  top: "res24b0_branch2b"
  param {
    lr_mult: 1
    decay_mult: 1
  }
  param {
    lr_mult: 2
    decay_mult: 0
  }
  convolution_param {
    num_output: 128
    pad: 1
    kernel_size: 3
    stride: 1
    weight_filler {
      type: "xavier"
      std: 0.01
    }
    bias_filler {
      type: "constant"
      value: 0
    }
  }
}
layer {
  name: "res24b0_branch2b_bn"
  type: "BatchNorm"
  bottom: "res24b0_branch2b"
  top: "res24b0_branch2b"
  batch_norm_param {
    use_global_stats: false
  }
}
layer {
  name: "res24b0_branch2b_scale"
  type: "Scale"
  bottom: "res24b0_branch2b"
  top: "res24b0_branch2b"
  scale_param {
    bias_term: true
  }
}
layer {
  name: "res24b0_branch2b_relu"
  type: "ReLU"
  bottom: "res24b0_branch2b"
  top: "res24b0_branch2b"
}
layer {
  name: "res24b0_branch2c"
  type: "Convolution"
  bottom: "res24b0_branch2b"
  top: "res24b0_branch2c"
  param {
    lr_mult: 1
    decay_mult: 1
  }
  param {
    lr_mult: 2
    decay_mult: 0
  }
  convolution_param {
    num_output: 128
    pad: 0
    kernel_size: 1
    stride: 1
    weight_filler {
      type: "xavier"
      std: 0.01
    }
    bias_filler {
      type: "constant"
      value: 0.2
    }
  }
}
layer {
  name: "res24b0_branch2c_bn"
  type: "BatchNorm"
  bottom: "res24b0_branch2c"
  top: "res24b0_branch2c"
  batch_norm_param {
    use_global_stats: false
  }
}
layer {
  name: "res24b0_branch2c_scale"
  type: "Scale"
  bottom: "res24b0_branch2c"
  top: "res24b0_branch2c"
  scale_param {
    bias_term: true
  }
}
layer {
  name: "res24b0"
  type: "Eltwise"
  bottom: "pool7"
  bottom: "res24b0_branch2c"
  top: "res24b0"
  eltwise_param {
    operation: SUM
  }
}
layer {
  name: "res24b0_relu"
  type: "ReLU"
  bottom: "res24b0"
  top: "res24b0"
}
layer {
  name: "res25b0_branch2a"
  type: "Convolution"
  bottom: "res24b0"
  top: "res25b0_branch2a"
  param {
    lr_mult: 1
    decay_mult: 1
  }
  param {
    lr_mult: 2
    decay_mult: 0
  }
  convolution_param {
    num_output: 128
    pad: 0
    kernel_size: 1
    stride: 1
    weight_filler {
      type: "xavier"
      std: 0.01
    }
    bias_filler {
      type: "constant"
      value: 0
    }
  }
}
layer {
  name: "res25b0_branch2a_bn"
  type: "BatchNorm"
  bottom: "res25b0_branch2a"
  top: "res25b0_branch2a"
  batch_norm_param {
    use_global_stats: false
  }
}
layer {
  name: "res25b0_branch2a_scale"
  type: "Scale"
  bottom: "res25b0_branch2a"
  top: "res25b0_branch2a"
  scale_param {
    bias_term: true
  }
}
layer {
  name: "res25b0_branch2a_relu"
  type: "ReLU"
  bottom: "res25b0_branch2a"
  top: "res25b0_branch2a"
}
layer {
  name: "res25b0_branch2b"
  type: "Convolution"
  bottom: "res25b0_branch2a"
  top: "res25b0_branch2b"
  param {
    lr_mult: 1
    decay_mult: 1
  }
  param {
    lr_mult: 2
    decay_mult: 0
  }
  convolution_param {
    num_output: 128
    pad: 1
    kernel_size: 3
    stride: 1
    weight_filler {
      type: "xavier"
      std: 0.01
    }
    bias_filler {
      type: "constant"
      value: 0
    }
  }
}
layer {
  name: "res25b0_branch2b_bn"
  type: "BatchNorm"
  bottom: "res25b0_branch2b"
  top: "res25b0_branch2b"
  batch_norm_param {
    use_global_stats: false
  }
}
layer {
  name: "res25b0_branch2b_scale"
  type: "Scale"
  bottom: "res25b0_branch2b"
  top: "res25b0_branch2b"
  scale_param {
    bias_term: true
  }
}
layer {
  name: "res25b0_branch2b_relu"
  type: "ReLU"
  bottom: "res25b0_branch2b"
  top: "res25b0_branch2b"
}
layer {
  name: "res25b0_branch2c"
  type: "Convolution"
  bottom: "res25b0_branch2b"
  top: "res25b0_branch2c"
  param {
    lr_mult: 1
    decay_mult: 1
  }
  param {
    lr_mult: 2
    decay_mult: 0
  }
  convolution_param {
    num_output: 128
    pad: 0
    kernel_size: 1
    stride: 1
    weight_filler {
      type: "xavier"
      std: 0.01
    }
    bias_filler {
      type: "constant"
      value: 0.2
    }
  }
}
layer {
  name: "res25b0_branch2c_bn"
  type: "BatchNorm"
  bottom: "res25b0_branch2c"
  top: "res25b0_branch2c"
  batch_norm_param {
    use_global_stats: false
  }
}
layer {
  name: "res25b0_branch2c_scale"
  type: "Scale"
  bottom: "res25b0_branch2c"
  top: "res25b0_branch2c"
  scale_param {
    bias_term: true
  }
}
layer {
  name: "res25b0"
  type: "Eltwise"
  bottom: "res24b0"
  bottom: "res25b0_branch2c"
  top: "res25b0"
  eltwise_param {
    operation: SUM
  }
}
layer {
  name: "res25b0_relu"
  type: "ReLU"
  bottom: "res25b0"
  top: "res25b0"
}
layer {
  name: "pool8"
  type: "Pooling"
  bottom: "res24b0"
  top: "pool8"
  pooling_param {
    pool: MAX
    kernel_size: 2
    stride: 2
  }
}
layer {
  name: "res26b0_branch2a"
  type: "Convolution"
  bottom: "pool8"
  top: "res26b0_branch2a"
  param {
    lr_mult: 1
    decay_mult: 1
  }
  param {
    lr_mult: 2
    decay_mult: 0
  }
  convolution_param {
    num_output: 128
    pad: 0
    kernel_size: 1
    stride: 1
    weight_filler {
      type: "xavier"
      std: 0.01
    }
    bias_filler {
      type: "constant"
      value: 0
    }
  }
}
layer {
  name: "res26b0_branch2a_bn"
  type: "BatchNorm"
  bottom: "res26b0_branch2a"
  top: "res26b0_branch2a"
  batch_norm_param {
    use_global_stats: false
  }
}
layer {
  name: "res26b0_branch2a_scale"
  type: "Scale"
  bottom: "res26b0_branch2a"
  top: "res26b0_branch2a"
  scale_param {
    bias_term: true
  }
}
layer {
  name: "res26b0_branch2a_relu"
  type: "ReLU"
  bottom: "res26b0_branch2a"
  top: "res26b0_branch2a"
}
layer {
  name: "res26b0_branch2b"
  type: "Convolution"
  bottom: "res26b0_branch2a"
  top: "res26b0_branch2b"
  param {
    lr_mult: 1
    decay_mult: 1
  }
  param {
    lr_mult: 2
    decay_mult: 0
  }
  convolution_param {
    num_output: 128
    pad: 1
    kernel_size: 3
    stride: 1
    weight_filler {
      type: "xavier"
      std: 0.01
    }
    bias_filler {
      type: "constant"
      value: 0
    }
  }
}
layer {
  name: "res26b0_branch2b_bn"
  type: "BatchNorm"
  bottom: "res26b0_branch2b"
  top: "res26b0_branch2b"
  batch_norm_param {
    use_global_stats: false
  }
}
layer {
  name: "res26b0_branch2b_scale"
  type: "Scale"
  bottom: "res26b0_branch2b"
  top: "res26b0_branch2b"
  scale_param {
    bias_term: true
  }
}
layer {
  name: "res26b0_branch2b_relu"
  type: "ReLU"
  bottom: "res26b0_branch2b"
  top: "res26b0_branch2b"
}
layer {
  name: "res26b0_branch2c"
  type: "Convolution"
  bottom: "res26b0_branch2b"
  top: "res26b0_branch2c"
  param {
    lr_mult: 1
    decay_mult: 1
  }
  param {
    lr_mult: 2
    decay_mult: 0
  }
  convolution_param {
    num_output: 128
    pad: 0
    kernel_size: 1
    stride: 1
    weight_filler {
      type: "xavier"
      std: 0.01
    }
    bias_filler {
      type: "constant"
      value: 0.2
    }
  }
}
layer {
  name: "res26b0_branch2c_bn"
  type: "BatchNorm"
  bottom: "res26b0_branch2c"
  top: "res26b0_branch2c"
  batch_norm_param {
    use_global_stats: false
  }
}
layer {
  name: "res26b0_branch2c_scale"
  type: "Scale"
  bottom: "res26b0_branch2c"
  top: "res26b0_branch2c"
  scale_param {
    bias_term: true
  }
}
layer {
  name: "res26b0"
  type: "Eltwise"
  bottom: "pool8"
  bottom: "res26b0_branch2c"
  top: "res26b0"
  eltwise_param {
    operation: SUM
  }
}
layer {
  name: "res26b0_relu"
  type: "ReLU"
  bottom: "res26b0"
  top: "res26b0"
}
layer {
  name: "res27b0_branch2a"
  type: "Convolution"
  bottom: "res26b0"
  top: "res27b0_branch2a"
  param {
    lr_mult: 1
    decay_mult: 1
  }
  param {
    lr_mult: 2
    decay_mult: 0
  }
  convolution_param {
    num_output: 128
    pad: 0
    kernel_size: 1
    stride: 1
    weight_filler {
      type: "xavier"
      std: 0.01
    }
    bias_filler {
      type: "constant"
      value: 0
    }
  }
}
layer {
  name: "res27b0_branch2a_bn"
  type: "BatchNorm"
  bottom: "res27b0_branch2a"
  top: "res27b0_branch2a"
  batch_norm_param {
    use_global_stats: false
  }
}
layer {
  name: "res27b0_branch2a_scale"
  type: "Scale"
  bottom: "res27b0_branch2a"
  top: "res27b0_branch2a"
  scale_param {
    bias_term: true
  }
}
layer {
  name: "res27b0_branch2a_relu"
  type: "ReLU"
  bottom: "res27b0_branch2a"
  top: "res27b0_branch2a"
}
layer {
  name: "res27b0_branch2b"
  type: "Convolution"
  bottom: "res27b0_branch2a"
  top: "res27b0_branch2b"
  param {
    lr_mult: 1
    decay_mult: 1
  }
  param {
    lr_mult: 2
    decay_mult: 0
  }
  convolution_param {
    num_output: 128
    pad: 1
    kernel_size: 3
    stride: 1
    weight_filler {
      type: "xavier"
      std: 0.01
    }
    bias_filler {
      type: "constant"
      value: 0
    }
  }
}
layer {
  name: "res27b0_branch2b_bn"
  type: "BatchNorm"
  bottom: "res27b0_branch2b"
  top: "res27b0_branch2b"
  batch_norm_param {
    use_global_stats: false
  }
}
layer {
  name: "res27b0_branch2b_scale"
  type: "Scale"
  bottom: "res27b0_branch2b"
  top: "res27b0_branch2b"
  scale_param {
    bias_term: true
  }
}
layer {
  name: "res27b0_branch2b_relu"
  type: "ReLU"
  bottom: "res27b0_branch2b"
  top: "res27b0_branch2b"
}
layer {
  name: "res27b0_branch2c"
  type: "Convolution"
  bottom: "res27b0_branch2b"
  top: "res27b0_branch2c"
  param {
    lr_mult: 1
    decay_mult: 1
  }
  param {
    lr_mult: 2
    decay_mult: 0
  }
  convolution_param {
    num_output: 128
    pad: 0
    kernel_size: 1
    stride: 1
    weight_filler {
      type: "xavier"
      std: 0.01
    }
    bias_filler {
      type: "constant"
      value: 0.2
    }
  }
}
layer {
  name: "res27b0_branch2c_bn"
  type: "BatchNorm"
  bottom: "res27b0_branch2c"
  top: "res27b0_branch2c"
  batch_norm_param {
    use_global_stats: false
  }
}
layer {
  name: "res27b0_branch2c_scale"
  type: "Scale"
  bottom: "res27b0_branch2c"
  top: "res27b0_branch2c"
  scale_param {
    bias_term: true
  }
}
layer {
  name: "res27b0"
  type: "Eltwise"
  bottom: "res26b0"
  bottom: "res27b0_branch2c"
  top: "res27b0"
  eltwise_param {
    operation: SUM
  }
}
layer {
  name: "res27b0_relu"
  type: "ReLU"
  bottom: "res27b0"
  top: "res27b0"
}
layer {
  name: "res28b0_branch2a"
  type: "Convolution"
  bottom: "res27b0"
  top: "res28b0_branch2a"
  param {
    lr_mult: 1
    decay_mult: 1
  }
  param {
    lr_mult: 2
    decay_mult: 0
  }
  convolution_param {
    num_output: 128
    pad: 0
    kernel_size: 1
    stride: 1
    weight_filler {
      type: "xavier"
      std: 0.01
    }
    bias_filler {
      type: "constant"
      value: 0
    }
  }
}
layer {
  name: "res28b0_branch2a_bn"
  type: "BatchNorm"
  bottom: "res28b0_branch2a"
  top: "res28b0_branch2a"
  batch_norm_param {
    use_global_stats: false
  }
}
layer {
  name: "res28b0_branch2a_scale"
  type: "Scale"
  bottom: "res28b0_branch2a"
  top: "res28b0_branch2a"
  scale_param {
    bias_term: true
  }
}
layer {
  name: "res28b0_branch2a_relu"
  type: "ReLU"
  bottom: "res28b0_branch2a"
  top: "res28b0_branch2a"
}
layer {
  name: "res28b0_branch2b"
  type: "Convolution"
  bottom: "res28b0_branch2a"
  top: "res28b0_branch2b"
  param {
    lr_mult: 1
    decay_mult: 1
  }
  param {
    lr_mult: 2
    decay_mult: 0
  }
  convolution_param {
    num_output: 128
    pad: 1
    kernel_size: 3
    stride: 1
    weight_filler {
      type: "xavier"
      std: 0.01
    }
    bias_filler {
      type: "constant"
      value: 0
    }
  }
}
layer {
  name: "res28b0_branch2b_bn"
  type: "BatchNorm"
  bottom: "res28b0_branch2b"
  top: "res28b0_branch2b"
  batch_norm_param {
    use_global_stats: false
  }
}
layer {
  name: "res28b0_branch2b_scale"
  type: "Scale"
  bottom: "res28b0_branch2b"
  top: "res28b0_branch2b"
  scale_param {
    bias_term: true
  }
}
layer {
  name: "res28b0_branch2b_relu"
  type: "ReLU"
  bottom: "res28b0_branch2b"
  top: "res28b0_branch2b"
}
layer {
  name: "res28b0_branch2c"
  type: "Convolution"
  bottom: "res28b0_branch2b"
  top: "res28b0_branch2c"
  param {
    lr_mult: 1
    decay_mult: 1
  }
  param {
    lr_mult: 2
    decay_mult: 0
  }
  convolution_param {
    num_output: 128
    pad: 0
    kernel_size: 1
    stride: 1
    weight_filler {
      type: "xavier"
      std: 0.01
    }
    bias_filler {
      type: "constant"
      value: 0.2
    }
  }
}
layer {
  name: "res28b0_branch2c_bn"
  type: "BatchNorm"
  bottom: "res28b0_branch2c"
  top: "res28b0_branch2c"
  batch_norm_param {
    use_global_stats: false
  }
}
layer {
  name: "res28b0_branch2c_scale"
  type: "Scale"
  bottom: "res28b0_branch2c"
  top: "res28b0_branch2c"
  scale_param {
    bias_term: true
  }
}
layer {
  name: "res28b0"
  type: "Eltwise"
  bottom: "res27b0"
  bottom: "res28b0_branch2c"
  top: "res28b0"
  eltwise_param {
    operation: SUM
  }
}
layer {
  name: "res28b0_relu"
  type: "ReLU"
  bottom: "res28b0"
  top: "res28b0"
}
layer {
  name: "deconv4"
  type: "Deconvolution"
  bottom: "res28b0"
  top: "deconv4"
  param {
    lr_mult: 0
    decay_mult: 0
  }
  convolution_param {
    num_output: 128
    bias_term: false
    pad: 1
    kernel_size: 4
    stride: 2
    weight_filler {
      type: "bilinear"
    }
  }
}
layer {
  name: "add6"
  type: "Eltwise"
  bottom: "res25b0"
  bottom: "deconv4"
  top: "add6"
  eltwise_param {
    operation: SUM
  }
}
layer {
  name: "res29b0_branch2a"
  type: "Convolution"
  bottom: "add6"
  top: "res29b0_branch2a"
  param {
    lr_mult: 1
    decay_mult: 1
  }
  param {
    lr_mult: 2
    decay_mult: 0
  }
  convolution_param {
    num_output: 128
    pad: 0
    kernel_size: 1
    stride: 1
    weight_filler {
      type: "xavier"
      std: 0.01
    }
    bias_filler {
      type: "constant"
      value: 0
    }
  }
}
layer {
  name: "res29b0_branch2a_bn"
  type: "BatchNorm"
  bottom: "res29b0_branch2a"
  top: "res29b0_branch2a"
  batch_norm_param {
    use_global_stats: false
  }
}
layer {
  name: "res29b0_branch2a_scale"
  type: "Scale"
  bottom: "res29b0_branch2a"
  top: "res29b0_branch2a"
  scale_param {
    bias_term: true
  }
}
layer {
  name: "res29b0_branch2a_relu"
  type: "ReLU"
  bottom: "res29b0_branch2a"
  top: "res29b0_branch2a"
}
layer {
  name: "res29b0_branch2b"
  type: "Convolution"
  bottom: "res29b0_branch2a"
  top: "res29b0_branch2b"
  param {
    lr_mult: 1
    decay_mult: 1
  }
  param {
    lr_mult: 2
    decay_mult: 0
  }
  convolution_param {
    num_output: 128
    pad: 1
    kernel_size: 3
    stride: 1
    weight_filler {
      type: "xavier"
      std: 0.01
    }
    bias_filler {
      type: "constant"
      value: 0
    }
  }
}
layer {
  name: "res29b0_branch2b_bn"
  type: "BatchNorm"
  bottom: "res29b0_branch2b"
  top: "res29b0_branch2b"
  batch_norm_param {
    use_global_stats: false
  }
}
layer {
  name: "res29b0_branch2b_scale"
  type: "Scale"
  bottom: "res29b0_branch2b"
  top: "res29b0_branch2b"
  scale_param {
    bias_term: true
  }
}
layer {
  name: "res29b0_branch2b_relu"
  type: "ReLU"
  bottom: "res29b0_branch2b"
  top: "res29b0_branch2b"
}
layer {
  name: "res29b0_branch2c"
  type: "Convolution"
  bottom: "res29b0_branch2b"
  top: "res29b0_branch2c"
  param {
    lr_mult: 1
    decay_mult: 1
  }
  param {
    lr_mult: 2
    decay_mult: 0
  }
  convolution_param {
    num_output: 128
    pad: 0
    kernel_size: 1
    stride: 1
    weight_filler {
      type: "xavier"
      std: 0.01
    }
    bias_filler {
      type: "constant"
      value: 0.2
    }
  }
}
layer {
  name: "res29b0_branch2c_bn"
  type: "BatchNorm"
  bottom: "res29b0_branch2c"
  top: "res29b0_branch2c"
  batch_norm_param {
    use_global_stats: false
  }
}
layer {
  name: "res29b0_branch2c_scale"
  type: "Scale"
  bottom: "res29b0_branch2c"
  top: "res29b0_branch2c"
  scale_param {
    bias_term: true
  }
}
layer {
  name: "res29b0"
  type: "Eltwise"
  bottom: "add6"
  bottom: "res29b0_branch2c"
  top: "res29b0"
  eltwise_param {
    operation: SUM
  }
}
layer {
  name: "res29b0_relu"
  type: "ReLU"
  bottom: "res29b0"
  top: "res29b0"
}
layer {
  name: "deconv5"
  type: "Deconvolution"
  bottom: "res29b0"
  top: "deconv5"
  param {
    lr_mult: 0
    decay_mult: 0
  }
  convolution_param {
    num_output: 128
    bias_term: false
    pad: 1
    kernel_size: 4
    stride: 2
    weight_filler {
      type: "bilinear"
    }
  }
}
layer {
  name: "add7"
  type: "Eltwise"
  bottom: "res23b0"
  bottom: "deconv5"
  top: "add7"
  eltwise_param {
    operation: SUM
  }
}
layer {
  name: "res30b0_branch2a"
  type: "Convolution"
  bottom: "add7"
  top: "res30b0_branch2a"
  param {
    lr_mult: 1
    decay_mult: 1
  }
  param {
    lr_mult: 2
    decay_mult: 0
  }
  convolution_param {
    num_output: 128
    pad: 0
    kernel_size: 1
    stride: 1
    weight_filler {
      type: "xavier"
      std: 0.01
    }
    bias_filler {
      type: "constant"
      value: 0
    }
  }
}
layer {
  name: "res30b0_branch2a_bn"
  type: "BatchNorm"
  bottom: "res30b0_branch2a"
  top: "res30b0_branch2a"
  batch_norm_param {
    use_global_stats: false
  }
}
layer {
  name: "res30b0_branch2a_scale"
  type: "Scale"
  bottom: "res30b0_branch2a"
  top: "res30b0_branch2a"
  scale_param {
    bias_term: true
  }
}
layer {
  name: "res30b0_branch2a_relu"
  type: "ReLU"
  bottom: "res30b0_branch2a"
  top: "res30b0_branch2a"
}
layer {
  name: "res30b0_branch2b"
  type: "Convolution"
  bottom: "res30b0_branch2a"
  top: "res30b0_branch2b"
  param {
    lr_mult: 1
    decay_mult: 1
  }
  param {
    lr_mult: 2
    decay_mult: 0
  }
  convolution_param {
    num_output: 128
    pad: 1
    kernel_size: 3
    stride: 1
    weight_filler {
      type: "xavier"
      std: 0.01
    }
    bias_filler {
      type: "constant"
      value: 0
    }
  }
}
layer {
  name: "res30b0_branch2b_bn"
  type: "BatchNorm"
  bottom: "res30b0_branch2b"
  top: "res30b0_branch2b"
  batch_norm_param {
    use_global_stats: false
  }
}
layer {
  name: "res30b0_branch2b_scale"
  type: "Scale"
  bottom: "res30b0_branch2b"
  top: "res30b0_branch2b"
  scale_param {
    bias_term: true
  }
}
layer {
  name: "res30b0_branch2b_relu"
  type: "ReLU"
  bottom: "res30b0_branch2b"
  top: "res30b0_branch2b"
}
layer {
  name: "res30b0_branch2c"
  type: "Convolution"
  bottom: "res30b0_branch2b"
  top: "res30b0_branch2c"
  param {
    lr_mult: 1
    decay_mult: 1
  }
  param {
    lr_mult: 2
    decay_mult: 0
  }
  convolution_param {
    num_output: 128
    pad: 0
    kernel_size: 1
    stride: 1
    weight_filler {
      type: "xavier"
      std: 0.01
    }
    bias_filler {
      type: "constant"
      value: 0.2
    }
  }
}
layer {
  name: "res30b0_branch2c_bn"
  type: "BatchNorm"
  bottom: "res30b0_branch2c"
  top: "res30b0_branch2c"
  batch_norm_param {
    use_global_stats: false
  }
}
layer {
  name: "res30b0_branch2c_scale"
  type: "Scale"
  bottom: "res30b0_branch2c"
  top: "res30b0_branch2c"
  scale_param {
    bias_term: true
  }
}
layer {
  name: "res30b0"
  type: "Eltwise"
  bottom: "add7"
  bottom: "res30b0_branch2c"
  top: "res30b0"
  eltwise_param {
    operation: SUM
  }
}
layer {
  name: "res30b0_relu"
  type: "ReLU"
  bottom: "res30b0"
  top: "res30b0"
}
layer {
  name: "deconv6"
  type: "Deconvolution"
  bottom: "res30b0"
  top: "deconv6"
  param {
    lr_mult: 0
    decay_mult: 0
  }
  convolution_param {
    num_output: 128
    bias_term: false
    pad: 1
    kernel_size: 4
    stride: 2
    weight_filler {
      type: "bilinear"
    }
  }
}
layer {
  name: "add8"
  type: "Eltwise"
  bottom: "res21b0"
  bottom: "deconv6"
  top: "add8"
  eltwise_param {
    operation: SUM
  }
}
layer {
  name: "res31b0_branch2a"
  type: "Convolution"
  bottom: "add8"
  top: "res31b0_branch2a"
  param {
    lr_mult: 1
    decay_mult: 1
  }
  param {
    lr_mult: 2
    decay_mult: 0
  }
  convolution_param {
    num_output: 128
    pad: 0
    kernel_size: 1
    stride: 1
    weight_filler {
      type: "xavier"
      std: 0.01
    }
    bias_filler {
      type: "constant"
      value: 0
    }
  }
}
layer {
  name: "res31b0_branch2a_bn"
  type: "BatchNorm"
  bottom: "res31b0_branch2a"
  top: "res31b0_branch2a"
  batch_norm_param {
    use_global_stats: false
  }
}
layer {
  name: "res31b0_branch2a_scale"
  type: "Scale"
  bottom: "res31b0_branch2a"
  top: "res31b0_branch2a"
  scale_param {
    bias_term: true
  }
}
layer {
  name: "res31b0_branch2a_relu"
  type: "ReLU"
  bottom: "res31b0_branch2a"
  top: "res31b0_branch2a"
}
layer {
  name: "res31b0_branch2b"
  type: "Convolution"
  bottom: "res31b0_branch2a"
  top: "res31b0_branch2b"
  param {
    lr_mult: 1
    decay_mult: 1
  }
  param {
    lr_mult: 2
    decay_mult: 0
  }
  convolution_param {
    num_output: 128
    pad: 1
    kernel_size: 3
    stride: 1
    weight_filler {
      type: "xavier"
      std: 0.01
    }
    bias_filler {
      type: "constant"
      value: 0
    }
  }
}
layer {
  name: "res31b0_branch2b_bn"
  type: "BatchNorm"
  bottom: "res31b0_branch2b"
  top: "res31b0_branch2b"
  batch_norm_param {
    use_global_stats: false
  }
}
layer {
  name: "res31b0_branch2b_scale"
  type: "Scale"
  bottom: "res31b0_branch2b"
  top: "res31b0_branch2b"
  scale_param {
    bias_term: true
  }
}
layer {
  name: "res31b0_branch2b_relu"
  type: "ReLU"
  bottom: "res31b0_branch2b"
  top: "res31b0_branch2b"
}
layer {
  name: "res31b0_branch2c"
  type: "Convolution"
  bottom: "res31b0_branch2b"
  top: "res31b0_branch2c"
  param {
    lr_mult: 1
    decay_mult: 1
  }
  param {
    lr_mult: 2
    decay_mult: 0
  }
  convolution_param {
    num_output: 128
    pad: 0
    kernel_size: 1
    stride: 1
    weight_filler {
      type: "xavier"
      std: 0.01
    }
    bias_filler {
      type: "constant"
      value: 0.2
    }
  }
}
layer {
  name: "res31b0_branch2c_bn"
  type: "BatchNorm"
  bottom: "res31b0_branch2c"
  top: "res31b0_branch2c"
  batch_norm_param {
    use_global_stats: false
  }
}
layer {
  name: "res31b0_branch2c_scale"
  type: "Scale"
  bottom: "res31b0_branch2c"
  top: "res31b0_branch2c"
  scale_param {
    bias_term: true
  }
}
layer {
  name: "res31b0"
  type: "Eltwise"
  bottom: "add8"
  bottom: "res31b0_branch2c"
  top: "res31b0"
  eltwise_param {
    operation: SUM
  }
}
layer {
  name: "res31b0_relu"
  type: "ReLU"
  bottom: "res31b0"
  top: "res31b0"
}
layer {
  name: "deconv7"
  type: "Deconvolution"
  bottom: "res31b0"
  top: "deconv7"
  param {
    lr_mult: 0
    decay_mult: 0
  }
  convolution_param {
    num_output: 128
    bias_term: false
    pad: 1
    kernel_size: 4
    stride: 2
    weight_filler {
      type: "bilinear"
    }
  }
}
layer {
  name: "add9"
  type: "Eltwise"
  bottom: "res19b0"
  bottom: "deconv7"
  top: "add9"
  eltwise_param {
    operation: SUM
  }
}
layer {
  name: "res32b0_branch2a"
  type: "Convolution"
  bottom: "add9"
  top: "res32b0_branch2a"
  param {
    lr_mult: 1
    decay_mult: 1
  }
  param {
    lr_mult: 2
    decay_mult: 0
  }
  convolution_param {
    num_output: 128
    pad: 0
    kernel_size: 1
    stride: 1
    weight_filler {
      type: "xavier"
      std: 0.01
    }
    bias_filler {
      type: "constant"
      value: 0
    }
  }
}
layer {
  name: "res32b0_branch2a_bn"
  type: "BatchNorm"
  bottom: "res32b0_branch2a"
  top: "res32b0_branch2a"
  batch_norm_param {
    use_global_stats: false
  }
}
layer {
  name: "res32b0_branch2a_scale"
  type: "Scale"
  bottom: "res32b0_branch2a"
  top: "res32b0_branch2a"
  scale_param {
    bias_term: true
  }
}
layer {
  name: "res32b0_branch2a_relu"
  type: "ReLU"
  bottom: "res32b0_branch2a"
  top: "res32b0_branch2a"
}
layer {
  name: "res32b0_branch2b"
  type: "Convolution"
  bottom: "res32b0_branch2a"
  top: "res32b0_branch2b"
  param {
    lr_mult: 1
    decay_mult: 1
  }
  param {
    lr_mult: 2
    decay_mult: 0
  }
  convolution_param {
    num_output: 128
    pad: 1
    kernel_size: 3
    stride: 1
    weight_filler {
      type: "xavier"
      std: 0.01
    }
    bias_filler {
      type: "constant"
      value: 0
    }
  }
}
layer {
  name: "res32b0_branch2b_bn"
  type: "BatchNorm"
  bottom: "res32b0_branch2b"
  top: "res32b0_branch2b"
  batch_norm_param {
    use_global_stats: false
  }
}
layer {
  name: "res32b0_branch2b_scale"
  type: "Scale"
  bottom: "res32b0_branch2b"
  top: "res32b0_branch2b"
  scale_param {
    bias_term: true
  }
}
layer {
  name: "res32b0_branch2b_relu"
  type: "ReLU"
  bottom: "res32b0_branch2b"
  top: "res32b0_branch2b"
}
layer {
  name: "res32b0_branch2c"
  type: "Convolution"
  bottom: "res32b0_branch2b"
  top: "res32b0_branch2c"
  param {
    lr_mult: 1
    decay_mult: 1
  }
  param {
    lr_mult: 2
    decay_mult: 0
  }
  convolution_param {
    num_output: 128
    pad: 0
    kernel_size: 1
    stride: 1
    weight_filler {
      type: "xavier"
      std: 0.01
    }
    bias_filler {
      type: "constant"
      value: 0.2
    }
  }
}
layer {
  name: "res32b0_branch2c_bn"
  type: "BatchNorm"
  bottom: "res32b0_branch2c"
  top: "res32b0_branch2c"
  batch_norm_param {
    use_global_stats: false
  }
}
layer {
  name: "res32b0_branch2c_scale"
  type: "Scale"
  bottom: "res32b0_branch2c"
  top: "res32b0_branch2c"
  scale_param {
    bias_term: true
  }
}
layer {
  name: "res32b0"
  type: "Eltwise"
  bottom: "add9"
  bottom: "res32b0_branch2c"
  top: "res32b0"
  eltwise_param {
    operation: SUM
  }
}
layer {
  name: "res32b0_relu"
  type: "ReLU"
  bottom: "res32b0"
  top: "res32b0"
}
layer {
  name: "conv5"
  type: "Convolution"
  bottom: "res32b0"
  top: "conv5"
  param {
    lr_mult: 1
    decay_mult: 1
  }
  param {
    lr_mult: 2
    decay_mult: 0
  }
  convolution_param {
    num_output: 128
    pad: 0
    kernel_size: 1
    stride: 1
    weight_filler {
      type: "xavier"
      std: 0.01
    }
    bias_filler {
      type: "constant"
      value: 0
    }
  }
}
layer {
  name: "bn2"
  type: "BatchNorm"
  bottom: "conv5"
  top: "conv5"
  batch_norm_param {
    use_global_stats: false
  }
}
layer {
  name: "scale2"
  type: "Scale"
  bottom: "conv5"
  top: "conv5"
  scale_param {
    bias_term: true
  }
}
layer {
  name: "relu2"
  type: "ReLU"
  bottom: "conv5"
  top: "conv5"
}
layer {
  name: "conv6"
  type: "Convolution"
  bottom: "conv5"
  top: "conv6"
  param {
    lr_mult: 1
    decay_mult: 1
  }
  param {
    lr_mult: 2
    decay_mult: 0
  }
  convolution_param {
    num_output: 22
    pad: 0
    kernel_size: 1
    stride: 1
    weight_filler {
      type: "xavier"
      std: 0.01
    }
    bias_filler {
      type: "constant"
      value: 0
    }
  }
}
layer {
  name: "loss1"
  type: "EuclideanLoss"
  bottom: "conv6"
  bottom: "label_heat"
  top: "loss1"
}
layer {
  name: "conv7"
  type: "Convolution"
  bottom: "conv5"
  top: "conv7"
  param {
    lr_mult: 1
    decay_mult: 1
  }
  param {
    lr_mult: 2
    decay_mult: 0
  }
  convolution_param {
    num_output: 128
    pad: 0
    kernel_size: 1
    stride: 1
    weight_filler {
      type: "xavier"
      std: 0.01
    }
    bias_filler {
      type: "constant"
      value: 0
    }
  }
}
layer {
  name: "conv8"
  type: "Convolution"
  bottom: "conv6"
  top: "conv8"
  param {
    lr_mult: 1
    decay_mult: 1
  }
  param {
    lr_mult: 2
    decay_mult: 0
  }
  convolution_param {
    num_output: 128
    pad: 0
    kernel_size: 1
    stride: 1
    weight_filler {
      type: "xavier"
      std: 0.01
    }
    bias_filler {
      type: "constant"
      value: 0
    }
  }
}
layer {
  name: "add10"
  type: "Eltwise"
  bottom: "conv7"
  bottom: "conv8"
  top: "add10"
  eltwise_param {
    operation: SUM
  }
}
layer {
  name: "add11"
  type: "Eltwise"
  bottom: "add10"
  bottom: "add5"
  top: "add11"
  eltwise_param {
    operation: SUM
  }
}
layer {
  name: "res33b0_branch2a"
  type: "Convolution"
  bottom: "add11"
  top: "res33b0_branch2a"
  param {
    lr_mult: 1
    decay_mult: 1
  }
  param {
    lr_mult: 2
    decay_mult: 0
  }
  convolution_param {
    num_output: 128
    pad: 0
    kernel_size: 1
    stride: 1
    weight_filler {
      type: "xavier"
      std: 0.01
    }
    bias_filler {
      type: "constant"
      value: 0
    }
  }
}
layer {
  name: "res33b0_branch2a_bn"
  type: "BatchNorm"
  bottom: "res33b0_branch2a"
  top: "res33b0_branch2a"
  batch_norm_param {
    use_global_stats: false
  }
}
layer {
  name: "res33b0_branch2a_scale"
  type: "Scale"
  bottom: "res33b0_branch2a"
  top: "res33b0_branch2a"
  scale_param {
    bias_term: true
  }
}
layer {
  name: "res33b0_branch2a_relu"
  type: "ReLU"
  bottom: "res33b0_branch2a"
  top: "res33b0_branch2a"
}
layer {
  name: "res33b0_branch2b"
  type: "Convolution"
  bottom: "res33b0_branch2a"
  top: "res33b0_branch2b"
  param {
    lr_mult: 1
    decay_mult: 1
  }
  param {
    lr_mult: 2
    decay_mult: 0
  }
  convolution_param {
    num_output: 128
    pad: 1
    kernel_size: 3
    stride: 1
    weight_filler {
      type: "xavier"
      std: 0.01
    }
    bias_filler {
      type: "constant"
      value: 0
    }
  }
}
layer {
  name: "res33b0_branch2b_bn"
  type: "BatchNorm"
  bottom: "res33b0_branch2b"
  top: "res33b0_branch2b"
  batch_norm_param {
    use_global_stats: false
  }
}
layer {
  name: "res33b0_branch2b_scale"
  type: "Scale"
  bottom: "res33b0_branch2b"
  top: "res33b0_branch2b"
  scale_param {
    bias_term: true
  }
}
layer {
  name: "res33b0_branch2b_relu"
  type: "ReLU"
  bottom: "res33b0_branch2b"
  top: "res33b0_branch2b"
}
layer {
  name: "res33b0_branch2c"
  type: "Convolution"
  bottom: "res33b0_branch2b"
  top: "res33b0_branch2c"
  param {
    lr_mult: 1
    decay_mult: 1
  }
  param {
    lr_mult: 2
    decay_mult: 0
  }
  convolution_param {
    num_output: 128
    pad: 0
    kernel_size: 1
    stride: 1
    weight_filler {
      type: "xavier"
      std: 0.01
    }
    bias_filler {
      type: "constant"
      value: 0.2
    }
  }
}
layer {
  name: "res33b0_branch2c_bn"
  type: "BatchNorm"
  bottom: "res33b0_branch2c"
  top: "res33b0_branch2c"
  batch_norm_param {
    use_global_stats: false
  }
}
layer {
  name: "res33b0_branch2c_scale"
  type: "Scale"
  bottom: "res33b0_branch2c"
  top: "res33b0_branch2c"
  scale_param {
    bias_term: true
  }
}
layer {
  name: "res33b0"
  type: "Eltwise"
  bottom: "add11"
  bottom: "res33b0_branch2c"
  top: "res33b0"
  eltwise_param {
    operation: SUM
  }
}
layer {
  name: "res33b0_relu"
  type: "ReLU"
  bottom: "res33b0"
  top: "res33b0"
}
layer {
  name: "pool9"
  type: "Pooling"
  bottom: "add11"
  top: "pool9"
  pooling_param {
    pool: MAX
    kernel_size: 2
    stride: 2
  }
}
layer {
  name: "res34b0_branch2a"
  type: "Convolution"
  bottom: "pool9"
  top: "res34b0_branch2a"
  param {
    lr_mult: 1
    decay_mult: 1
  }
  param {
    lr_mult: 2
    decay_mult: 0
  }
  convolution_param {
    num_output: 128
    pad: 0
    kernel_size: 1
    stride: 1
    weight_filler {
      type: "xavier"
      std: 0.01
    }
    bias_filler {
      type: "constant"
      value: 0
    }
  }
}
layer {
  name: "res34b0_branch2a_bn"
  type: "BatchNorm"
  bottom: "res34b0_branch2a"
  top: "res34b0_branch2a"
  batch_norm_param {
    use_global_stats: false
  }
}
layer {
  name: "res34b0_branch2a_scale"
  type: "Scale"
  bottom: "res34b0_branch2a"
  top: "res34b0_branch2a"
  scale_param {
    bias_term: true
  }
}
layer {
  name: "res34b0_branch2a_relu"
  type: "ReLU"
  bottom: "res34b0_branch2a"
  top: "res34b0_branch2a"
}
layer {
  name: "res34b0_branch2b"
  type: "Convolution"
  bottom: "res34b0_branch2a"
  top: "res34b0_branch2b"
  param {
    lr_mult: 1
    decay_mult: 1
  }
  param {
    lr_mult: 2
    decay_mult: 0
  }
  convolution_param {
    num_output: 128
    pad: 1
    kernel_size: 3
    stride: 1
    weight_filler {
      type: "xavier"
      std: 0.01
    }
    bias_filler {
      type: "constant"
      value: 0
    }
  }
}
layer {
  name: "res34b0_branch2b_bn"
  type: "BatchNorm"
  bottom: "res34b0_branch2b"
  top: "res34b0_branch2b"
  batch_norm_param {
    use_global_stats: false
  }
}
layer {
  name: "res34b0_branch2b_scale"
  type: "Scale"
  bottom: "res34b0_branch2b"
  top: "res34b0_branch2b"
  scale_param {
    bias_term: true
  }
}
layer {
  name: "res34b0_branch2b_relu"
  type: "ReLU"
  bottom: "res34b0_branch2b"
  top: "res34b0_branch2b"
}
layer {
  name: "res34b0_branch2c"
  type: "Convolution"
  bottom: "res34b0_branch2b"
  top: "res34b0_branch2c"
  param {
    lr_mult: 1
    decay_mult: 1
  }
  param {
    lr_mult: 2
    decay_mult: 0
  }
  convolution_param {
    num_output: 128
    pad: 0
    kernel_size: 1
    stride: 1
    weight_filler {
      type: "xavier"
      std: 0.01
    }
    bias_filler {
      type: "constant"
      value: 0.2
    }
  }
}
layer {
  name: "res34b0_branch2c_bn"
  type: "BatchNorm"
  bottom: "res34b0_branch2c"
  top: "res34b0_branch2c"
  batch_norm_param {
    use_global_stats: false
  }
}
layer {
  name: "res34b0_branch2c_scale"
  type: "Scale"
  bottom: "res34b0_branch2c"
  top: "res34b0_branch2c"
  scale_param {
    bias_term: true
  }
}
layer {
  name: "res34b0"
  type: "Eltwise"
  bottom: "pool9"
  bottom: "res34b0_branch2c"
  top: "res34b0"
  eltwise_param {
    operation: SUM
  }
}
layer {
  name: "res34b0_relu"
  type: "ReLU"
  bottom: "res34b0"
  top: "res34b0"
}
layer {
  name: "res35b0_branch2a"
  type: "Convolution"
  bottom: "res34b0"
  top: "res35b0_branch2a"
  param {
    lr_mult: 1
    decay_mult: 1
  }
  param {
    lr_mult: 2
    decay_mult: 0
  }
  convolution_param {
    num_output: 128
    pad: 0
    kernel_size: 1
    stride: 1
    weight_filler {
      type: "xavier"
      std: 0.01
    }
    bias_filler {
      type: "constant"
      value: 0
    }
  }
}
layer {
  name: "res35b0_branch2a_bn"
  type: "BatchNorm"
  bottom: "res35b0_branch2a"
  top: "res35b0_branch2a"
  batch_norm_param {
    use_global_stats: false
  }
}
layer {
  name: "res35b0_branch2a_scale"
  type: "Scale"
  bottom: "res35b0_branch2a"
  top: "res35b0_branch2a"
  scale_param {
    bias_term: true
  }
}
layer {
  name: "res35b0_branch2a_relu"
  type: "ReLU"
  bottom: "res35b0_branch2a"
  top: "res35b0_branch2a"
}
layer {
  name: "res35b0_branch2b"
  type: "Convolution"
  bottom: "res35b0_branch2a"
  top: "res35b0_branch2b"
  param {
    lr_mult: 1
    decay_mult: 1
  }
  param {
    lr_mult: 2
    decay_mult: 0
  }
  convolution_param {
    num_output: 128
    pad: 1
    kernel_size: 3
    stride: 1
    weight_filler {
      type: "xavier"
      std: 0.01
    }
    bias_filler {
      type: "constant"
      value: 0
    }
  }
}
layer {
  name: "res35b0_branch2b_bn"
  type: "BatchNorm"
  bottom: "res35b0_branch2b"
  top: "res35b0_branch2b"
  batch_norm_param {
    use_global_stats: false
  }
}
layer {
  name: "res35b0_branch2b_scale"
  type: "Scale"
  bottom: "res35b0_branch2b"
  top: "res35b0_branch2b"
  scale_param {
    bias_term: true
  }
}
layer {
  name: "res35b0_branch2b_relu"
  type: "ReLU"
  bottom: "res35b0_branch2b"
  top: "res35b0_branch2b"
}
layer {
  name: "res35b0_branch2c"
  type: "Convolution"
  bottom: "res35b0_branch2b"
  top: "res35b0_branch2c"
  param {
    lr_mult: 1
    decay_mult: 1
  }
  param {
    lr_mult: 2
    decay_mult: 0
  }
  convolution_param {
    num_output: 128
    pad: 0
    kernel_size: 1
    stride: 1
    weight_filler {
      type: "xavier"
      std: 0.01
    }
    bias_filler {
      type: "constant"
      value: 0.2
    }
  }
}
layer {
  name: "res35b0_branch2c_bn"
  type: "BatchNorm"
  bottom: "res35b0_branch2c"
  top: "res35b0_branch2c"
  batch_norm_param {
    use_global_stats: false
  }
}
layer {
  name: "res35b0_branch2c_scale"
  type: "Scale"
  bottom: "res35b0_branch2c"
  top: "res35b0_branch2c"
  scale_param {
    bias_term: true
  }
}
layer {
  name: "res35b0"
  type: "Eltwise"
  bottom: "res34b0"
  bottom: "res35b0_branch2c"
  top: "res35b0"
  eltwise_param {
    operation: SUM
  }
}
layer {
  name: "res35b0_relu"
  type: "ReLU"
  bottom: "res35b0"
  top: "res35b0"
}
layer {
  name: "pool10"
  type: "Pooling"
  bottom: "res34b0"
  top: "pool10"
  pooling_param {
    pool: MAX
    kernel_size: 2
    stride: 2
  }
}
layer {
  name: "res36b0_branch2a"
  type: "Convolution"
  bottom: "pool10"
  top: "res36b0_branch2a"
  param {
    lr_mult: 1
    decay_mult: 1
  }
  param {
    lr_mult: 2
    decay_mult: 0
  }
  convolution_param {
    num_output: 128
    pad: 0
    kernel_size: 1
    stride: 1
    weight_filler {
      type: "xavier"
      std: 0.01
    }
    bias_filler {
      type: "constant"
      value: 0
    }
  }
}
layer {
  name: "res36b0_branch2a_bn"
  type: "BatchNorm"
  bottom: "res36b0_branch2a"
  top: "res36b0_branch2a"
  batch_norm_param {
    use_global_stats: false
  }
}
layer {
  name: "res36b0_branch2a_scale"
  type: "Scale"
  bottom: "res36b0_branch2a"
  top: "res36b0_branch2a"
  scale_param {
    bias_term: true
  }
}
layer {
  name: "res36b0_branch2a_relu"
  type: "ReLU"
  bottom: "res36b0_branch2a"
  top: "res36b0_branch2a"
}
layer {
  name: "res36b0_branch2b"
  type: "Convolution"
  bottom: "res36b0_branch2a"
  top: "res36b0_branch2b"
  param {
    lr_mult: 1
    decay_mult: 1
  }
  param {
    lr_mult: 2
    decay_mult: 0
  }
  convolution_param {
    num_output: 128
    pad: 1
    kernel_size: 3
    stride: 1
    weight_filler {
      type: "xavier"
      std: 0.01
    }
    bias_filler {
      type: "constant"
      value: 0
    }
  }
}
layer {
  name: "res36b0_branch2b_bn"
  type: "BatchNorm"
  bottom: "res36b0_branch2b"
  top: "res36b0_branch2b"
  batch_norm_param {
    use_global_stats: false
  }
}
layer {
  name: "res36b0_branch2b_scale"
  type: "Scale"
  bottom: "res36b0_branch2b"
  top: "res36b0_branch2b"
  scale_param {
    bias_term: true
  }
}
layer {
  name: "res36b0_branch2b_relu"
  type: "ReLU"
  bottom: "res36b0_branch2b"
  top: "res36b0_branch2b"
}
layer {
  name: "res36b0_branch2c"
  type: "Convolution"
  bottom: "res36b0_branch2b"
  top: "res36b0_branch2c"
  param {
    lr_mult: 1
    decay_mult: 1
  }
  param {
    lr_mult: 2
    decay_mult: 0
  }
  convolution_param {
    num_output: 128
    pad: 0
    kernel_size: 1
    stride: 1
    weight_filler {
      type: "xavier"
      std: 0.01
    }
    bias_filler {
      type: "constant"
      value: 0.2
    }
  }
}
layer {
  name: "res36b0_branch2c_bn"
  type: "BatchNorm"
  bottom: "res36b0_branch2c"
  top: "res36b0_branch2c"
  batch_norm_param {
    use_global_stats: false
  }
}
layer {
  name: "res36b0_branch2c_scale"
  type: "Scale"
  bottom: "res36b0_branch2c"
  top: "res36b0_branch2c"
  scale_param {
    bias_term: true
  }
}
layer {
  name: "res36b0"
  type: "Eltwise"
  bottom: "pool10"
  bottom: "res36b0_branch2c"
  top: "res36b0"
  eltwise_param {
    operation: SUM
  }
}
layer {
  name: "res36b0_relu"
  type: "ReLU"
  bottom: "res36b0"
  top: "res36b0"
}
layer {
  name: "res37b0_branch2a"
  type: "Convolution"
  bottom: "res36b0"
  top: "res37b0_branch2a"
  param {
    lr_mult: 1
    decay_mult: 1
  }
  param {
    lr_mult: 2
    decay_mult: 0
  }
  convolution_param {
    num_output: 128
    pad: 0
    kernel_size: 1
    stride: 1
    weight_filler {
      type: "xavier"
      std: 0.01
    }
    bias_filler {
      type: "constant"
      value: 0
    }
  }
}
layer {
  name: "res37b0_branch2a_bn"
  type: "BatchNorm"
  bottom: "res37b0_branch2a"
  top: "res37b0_branch2a"
  batch_norm_param {
    use_global_stats: false
  }
}
layer {
  name: "res37b0_branch2a_scale"
  type: "Scale"
  bottom: "res37b0_branch2a"
  top: "res37b0_branch2a"
  scale_param {
    bias_term: true
  }
}
layer {
  name: "res37b0_branch2a_relu"
  type: "ReLU"
  bottom: "res37b0_branch2a"
  top: "res37b0_branch2a"
}
layer {
  name: "res37b0_branch2b"
  type: "Convolution"
  bottom: "res37b0_branch2a"
  top: "res37b0_branch2b"
  param {
    lr_mult: 1
    decay_mult: 1
  }
  param {
    lr_mult: 2
    decay_mult: 0
  }
  convolution_param {
    num_output: 128
    pad: 1
    kernel_size: 3
    stride: 1
    weight_filler {
      type: "xavier"
      std: 0.01
    }
    bias_filler {
      type: "constant"
      value: 0
    }
  }
}
layer {
  name: "res37b0_branch2b_bn"
  type: "BatchNorm"
  bottom: "res37b0_branch2b"
  top: "res37b0_branch2b"
  batch_norm_param {
    use_global_stats: false
  }
}
layer {
  name: "res37b0_branch2b_scale"
  type: "Scale"
  bottom: "res37b0_branch2b"
  top: "res37b0_branch2b"
  scale_param {
    bias_term: true
  }
}
layer {
  name: "res37b0_branch2b_relu"
  type: "ReLU"
  bottom: "res37b0_branch2b"
  top: "res37b0_branch2b"
}
layer {
  name: "res37b0_branch2c"
  type: "Convolution"
  bottom: "res37b0_branch2b"
  top: "res37b0_branch2c"
  param {
    lr_mult: 1
    decay_mult: 1
  }
  param {
    lr_mult: 2
    decay_mult: 0
  }
  convolution_param {
    num_output: 128
    pad: 0
    kernel_size: 1
    stride: 1
    weight_filler {
      type: "xavier"
      std: 0.01
    }
    bias_filler {
      type: "constant"
      value: 0.2
    }
  }
}
layer {
  name: "res37b0_branch2c_bn"
  type: "BatchNorm"
  bottom: "res37b0_branch2c"
  top: "res37b0_branch2c"
  batch_norm_param {
    use_global_stats: false
  }
}
layer {
  name: "res37b0_branch2c_scale"
  type: "Scale"
  bottom: "res37b0_branch2c"
  top: "res37b0_branch2c"
  scale_param {
    bias_term: true
  }
}
layer {
  name: "res37b0"
  type: "Eltwise"
  bottom: "res36b0"
  bottom: "res37b0_branch2c"
  top: "res37b0"
  eltwise_param {
    operation: SUM
  }
}
layer {
  name: "res37b0_relu"
  type: "ReLU"
  bottom: "res37b0"
  top: "res37b0"
}
layer {
  name: "pool11"
  type: "Pooling"
  bottom: "res36b0"
  top: "pool11"
  pooling_param {
    pool: MAX
    kernel_size: 2
    stride: 2
  }
}
layer {
  name: "res38b0_branch2a"
  type: "Convolution"
  bottom: "pool11"
  top: "res38b0_branch2a"
  param {
    lr_mult: 1
    decay_mult: 1
  }
  param {
    lr_mult: 2
    decay_mult: 0
  }
  convolution_param {
    num_output: 128
    pad: 0
    kernel_size: 1
    stride: 1
    weight_filler {
      type: "xavier"
      std: 0.01
    }
    bias_filler {
      type: "constant"
      value: 0
    }
  }
}
layer {
  name: "res38b0_branch2a_bn"
  type: "BatchNorm"
  bottom: "res38b0_branch2a"
  top: "res38b0_branch2a"
  batch_norm_param {
    use_global_stats: false
  }
}
layer {
  name: "res38b0_branch2a_scale"
  type: "Scale"
  bottom: "res38b0_branch2a"
  top: "res38b0_branch2a"
  scale_param {
    bias_term: true
  }
}
layer {
  name: "res38b0_branch2a_relu"
  type: "ReLU"
  bottom: "res38b0_branch2a"
  top: "res38b0_branch2a"
}
layer {
  name: "res38b0_branch2b"
  type: "Convolution"
  bottom: "res38b0_branch2a"
  top: "res38b0_branch2b"
  param {
    lr_mult: 1
    decay_mult: 1
  }
  param {
    lr_mult: 2
    decay_mult: 0
  }
  convolution_param {
    num_output: 128
    pad: 1
    kernel_size: 3
    stride: 1
    weight_filler {
      type: "xavier"
      std: 0.01
    }
    bias_filler {
      type: "constant"
      value: 0
    }
  }
}
layer {
  name: "res38b0_branch2b_bn"
  type: "BatchNorm"
  bottom: "res38b0_branch2b"
  top: "res38b0_branch2b"
  batch_norm_param {
    use_global_stats: false
  }
}
layer {
  name: "res38b0_branch2b_scale"
  type: "Scale"
  bottom: "res38b0_branch2b"
  top: "res38b0_branch2b"
  scale_param {
    bias_term: true
  }
}
layer {
  name: "res38b0_branch2b_relu"
  type: "ReLU"
  bottom: "res38b0_branch2b"
  top: "res38b0_branch2b"
}
layer {
  name: "res38b0_branch2c"
  type: "Convolution"
  bottom: "res38b0_branch2b"
  top: "res38b0_branch2c"
  param {
    lr_mult: 1
    decay_mult: 1
  }
  param {
    lr_mult: 2
    decay_mult: 0
  }
  convolution_param {
    num_output: 128
    pad: 0
    kernel_size: 1
    stride: 1
    weight_filler {
      type: "xavier"
      std: 0.01
    }
    bias_filler {
      type: "constant"
      value: 0.2
    }
  }
}
layer {
  name: "res38b0_branch2c_bn"
  type: "BatchNorm"
  bottom: "res38b0_branch2c"
  top: "res38b0_branch2c"
  batch_norm_param {
    use_global_stats: false
  }
}
layer {
  name: "res38b0_branch2c_scale"
  type: "Scale"
  bottom: "res38b0_branch2c"
  top: "res38b0_branch2c"
  scale_param {
    bias_term: true
  }
}
layer {
  name: "res38b0"
  type: "Eltwise"
  bottom: "pool11"
  bottom: "res38b0_branch2c"
  top: "res38b0"
  eltwise_param {
    operation: SUM
  }
}
layer {
  name: "res38b0_relu"
  type: "ReLU"
  bottom: "res38b0"
  top: "res38b0"
}
layer {
  name: "res39b0_branch2a"
  type: "Convolution"
  bottom: "res38b0"
  top: "res39b0_branch2a"
  param {
    lr_mult: 1
    decay_mult: 1
  }
  param {
    lr_mult: 2
    decay_mult: 0
  }
  convolution_param {
    num_output: 128
    pad: 0
    kernel_size: 1
    stride: 1
    weight_filler {
      type: "xavier"
      std: 0.01
    }
    bias_filler {
      type: "constant"
      value: 0
    }
  }
}
layer {
  name: "res39b0_branch2a_bn"
  type: "BatchNorm"
  bottom: "res39b0_branch2a"
  top: "res39b0_branch2a"
  batch_norm_param {
    use_global_stats: false
  }
}
layer {
  name: "res39b0_branch2a_scale"
  type: "Scale"
  bottom: "res39b0_branch2a"
  top: "res39b0_branch2a"
  scale_param {
    bias_term: true
  }
}
layer {
  name: "res39b0_branch2a_relu"
  type: "ReLU"
  bottom: "res39b0_branch2a"
  top: "res39b0_branch2a"
}
layer {
  name: "res39b0_branch2b"
  type: "Convolution"
  bottom: "res39b0_branch2a"
  top: "res39b0_branch2b"
  param {
    lr_mult: 1
    decay_mult: 1
  }
  param {
    lr_mult: 2
    decay_mult: 0
  }
  convolution_param {
    num_output: 128
    pad: 1
    kernel_size: 3
    stride: 1
    weight_filler {
      type: "xavier"
      std: 0.01
    }
    bias_filler {
      type: "constant"
      value: 0
    }
  }
}
layer {
  name: "res39b0_branch2b_bn"
  type: "BatchNorm"
  bottom: "res39b0_branch2b"
  top: "res39b0_branch2b"
  batch_norm_param {
    use_global_stats: false
  }
}
layer {
  name: "res39b0_branch2b_scale"
  type: "Scale"
  bottom: "res39b0_branch2b"
  top: "res39b0_branch2b"
  scale_param {
    bias_term: true
  }
}
layer {
  name: "res39b0_branch2b_relu"
  type: "ReLU"
  bottom: "res39b0_branch2b"
  top: "res39b0_branch2b"
}
layer {
  name: "res39b0_branch2c"
  type: "Convolution"
  bottom: "res39b0_branch2b"
  top: "res39b0_branch2c"
  param {
    lr_mult: 1
    decay_mult: 1
  }
  param {
    lr_mult: 2
    decay_mult: 0
  }
  convolution_param {
    num_output: 128
    pad: 0
    kernel_size: 1
    stride: 1
    weight_filler {
      type: "xavier"
      std: 0.01
    }
    bias_filler {
      type: "constant"
      value: 0.2
    }
  }
}
layer {
  name: "res39b0_branch2c_bn"
  type: "BatchNorm"
  bottom: "res39b0_branch2c"
  top: "res39b0_branch2c"
  batch_norm_param {
    use_global_stats: false
  }
}
layer {
  name: "res39b0_branch2c_scale"
  type: "Scale"
  bottom: "res39b0_branch2c"
  top: "res39b0_branch2c"
  scale_param {
    bias_term: true
  }
}
layer {
  name: "res39b0"
  type: "Eltwise"
  bottom: "res38b0"
  bottom: "res39b0_branch2c"
  top: "res39b0"
  eltwise_param {
    operation: SUM
  }
}
layer {
  name: "res39b0_relu"
  type: "ReLU"
  bottom: "res39b0"
  top: "res39b0"
}
layer {
  name: "pool12"
  type: "Pooling"
  bottom: "res38b0"
  top: "pool12"
  pooling_param {
    pool: MAX
    kernel_size: 2
    stride: 2
  }
}
layer {
  name: "res40b0_branch2a"
  type: "Convolution"
  bottom: "pool12"
  top: "res40b0_branch2a"
  param {
    lr_mult: 1
    decay_mult: 1
  }
  param {
    lr_mult: 2
    decay_mult: 0
  }
  convolution_param {
    num_output: 128
    pad: 0
    kernel_size: 1
    stride: 1
    weight_filler {
      type: "xavier"
      std: 0.01
    }
    bias_filler {
      type: "constant"
      value: 0
    }
  }
}
layer {
  name: "res40b0_branch2a_bn"
  type: "BatchNorm"
  bottom: "res40b0_branch2a"
  top: "res40b0_branch2a"
  batch_norm_param {
    use_global_stats: false
  }
}
layer {
  name: "res40b0_branch2a_scale"
  type: "Scale"
  bottom: "res40b0_branch2a"
  top: "res40b0_branch2a"
  scale_param {
    bias_term: true
  }
}
layer {
  name: "res40b0_branch2a_relu"
  type: "ReLU"
  bottom: "res40b0_branch2a"
  top: "res40b0_branch2a"
}
layer {
  name: "res40b0_branch2b"
  type: "Convolution"
  bottom: "res40b0_branch2a"
  top: "res40b0_branch2b"
  param {
    lr_mult: 1
    decay_mult: 1
  }
  param {
    lr_mult: 2
    decay_mult: 0
  }
  convolution_param {
    num_output: 128
    pad: 1
    kernel_size: 3
    stride: 1
    weight_filler {
      type: "xavier"
      std: 0.01
    }
    bias_filler {
      type: "constant"
      value: 0
    }
  }
}
layer {
  name: "res40b0_branch2b_bn"
  type: "BatchNorm"
  bottom: "res40b0_branch2b"
  top: "res40b0_branch2b"
  batch_norm_param {
    use_global_stats: false
  }
}
layer {
  name: "res40b0_branch2b_scale"
  type: "Scale"
  bottom: "res40b0_branch2b"
  top: "res40b0_branch2b"
  scale_param {
    bias_term: true
  }
}
layer {
  name: "res40b0_branch2b_relu"
  type: "ReLU"
  bottom: "res40b0_branch2b"
  top: "res40b0_branch2b"
}
layer {
  name: "res40b0_branch2c"
  type: "Convolution"
  bottom: "res40b0_branch2b"
  top: "res40b0_branch2c"
  param {
    lr_mult: 1
    decay_mult: 1
  }
  param {
    lr_mult: 2
    decay_mult: 0
  }
  convolution_param {
    num_output: 128
    pad: 0
    kernel_size: 1
    stride: 1
    weight_filler {
      type: "xavier"
      std: 0.01
    }
    bias_filler {
      type: "constant"
      value: 0.2
    }
  }
}
layer {
  name: "res40b0_branch2c_bn"
  type: "BatchNorm"
  bottom: "res40b0_branch2c"
  top: "res40b0_branch2c"
  batch_norm_param {
    use_global_stats: false
  }
}
layer {
  name: "res40b0_branch2c_scale"
  type: "Scale"
  bottom: "res40b0_branch2c"
  top: "res40b0_branch2c"
  scale_param {
    bias_term: true
  }
}
layer {
  name: "res40b0"
  type: "Eltwise"
  bottom: "pool12"
  bottom: "res40b0_branch2c"
  top: "res40b0"
  eltwise_param {
    operation: SUM
  }
}
layer {
  name: "res40b0_relu"
  type: "ReLU"
  bottom: "res40b0"
  top: "res40b0"
}
layer {
  name: "res41b0_branch2a"
  type: "Convolution"
  bottom: "res40b0"
  top: "res41b0_branch2a"
  param {
    lr_mult: 1
    decay_mult: 1
  }
  param {
    lr_mult: 2
    decay_mult: 0
  }
  convolution_param {
    num_output: 128
    pad: 0
    kernel_size: 1
    stride: 1
    weight_filler {
      type: "xavier"
      std: 0.01
    }
    bias_filler {
      type: "constant"
      value: 0
    }
  }
}
layer {
  name: "res41b0_branch2a_bn"
  type: "BatchNorm"
  bottom: "res41b0_branch2a"
  top: "res41b0_branch2a"
  batch_norm_param {
    use_global_stats: false
  }
}
layer {
  name: "res41b0_branch2a_scale"
  type: "Scale"
  bottom: "res41b0_branch2a"
  top: "res41b0_branch2a"
  scale_param {
    bias_term: true
  }
}
layer {
  name: "res41b0_branch2a_relu"
  type: "ReLU"
  bottom: "res41b0_branch2a"
  top: "res41b0_branch2a"
}
layer {
  name: "res41b0_branch2b"
  type: "Convolution"
  bottom: "res41b0_branch2a"
  top: "res41b0_branch2b"
  param {
    lr_mult: 1
    decay_mult: 1
  }
  param {
    lr_mult: 2
    decay_mult: 0
  }
  convolution_param {
    num_output: 128
    pad: 1
    kernel_size: 3
    stride: 1
    weight_filler {
      type: "xavier"
      std: 0.01
    }
    bias_filler {
      type: "constant"
      value: 0
    }
  }
}
layer {
  name: "res41b0_branch2b_bn"
  type: "BatchNorm"
  bottom: "res41b0_branch2b"
  top: "res41b0_branch2b"
  batch_norm_param {
    use_global_stats: false
  }
}
layer {
  name: "res41b0_branch2b_scale"
  type: "Scale"
  bottom: "res41b0_branch2b"
  top: "res41b0_branch2b"
  scale_param {
    bias_term: true
  }
}
layer {
  name: "res41b0_branch2b_relu"
  type: "ReLU"
  bottom: "res41b0_branch2b"
  top: "res41b0_branch2b"
}
layer {
  name: "res41b0_branch2c"
  type: "Convolution"
  bottom: "res41b0_branch2b"
  top: "res41b0_branch2c"
  param {
    lr_mult: 1
    decay_mult: 1
  }
  param {
    lr_mult: 2
    decay_mult: 0
  }
  convolution_param {
    num_output: 128
    pad: 0
    kernel_size: 1
    stride: 1
    weight_filler {
      type: "xavier"
      std: 0.01
    }
    bias_filler {
      type: "constant"
      value: 0.2
    }
  }
}
layer {
  name: "res41b0_branch2c_bn"
  type: "BatchNorm"
  bottom: "res41b0_branch2c"
  top: "res41b0_branch2c"
  batch_norm_param {
    use_global_stats: false
  }
}
layer {
  name: "res41b0_branch2c_scale"
  type: "Scale"
  bottom: "res41b0_branch2c"
  top: "res41b0_branch2c"
  scale_param {
    bias_term: true
  }
}
layer {
  name: "res41b0"
  type: "Eltwise"
  bottom: "res40b0"
  bottom: "res41b0_branch2c"
  top: "res41b0"
  eltwise_param {
    operation: SUM
  }
}
layer {
  name: "res41b0_relu"
  type: "ReLU"
  bottom: "res41b0"
  top: "res41b0"
}
layer {
  name: "res42b0_branch2a"
  type: "Convolution"
  bottom: "res41b0"
  top: "res42b0_branch2a"
  param {
    lr_mult: 1
    decay_mult: 1
  }
  param {
    lr_mult: 2
    decay_mult: 0
  }
  convolution_param {
    num_output: 128
    pad: 0
    kernel_size: 1
    stride: 1
    weight_filler {
      type: "xavier"
      std: 0.01
    }
    bias_filler {
      type: "constant"
      value: 0
    }
  }
}
layer {
  name: "res42b0_branch2a_bn"
  type: "BatchNorm"
  bottom: "res42b0_branch2a"
  top: "res42b0_branch2a"
  batch_norm_param {
    use_global_stats: false
  }
}
layer {
  name: "res42b0_branch2a_scale"
  type: "Scale"
  bottom: "res42b0_branch2a"
  top: "res42b0_branch2a"
  scale_param {
    bias_term: true
  }
}
layer {
  name: "res42b0_branch2a_relu"
  type: "ReLU"
  bottom: "res42b0_branch2a"
  top: "res42b0_branch2a"
}
layer {
  name: "res42b0_branch2b"
  type: "Convolution"
  bottom: "res42b0_branch2a"
  top: "res42b0_branch2b"
  param {
    lr_mult: 1
    decay_mult: 1
  }
  param {
    lr_mult: 2
    decay_mult: 0
  }
  convolution_param {
    num_output: 128
    pad: 1
    kernel_size: 3
    stride: 1
    weight_filler {
      type: "xavier"
      std: 0.01
    }
    bias_filler {
      type: "constant"
      value: 0
    }
  }
}
layer {
  name: "res42b0_branch2b_bn"
  type: "BatchNorm"
  bottom: "res42b0_branch2b"
  top: "res42b0_branch2b"
  batch_norm_param {
    use_global_stats: false
  }
}
layer {
  name: "res42b0_branch2b_scale"
  type: "Scale"
  bottom: "res42b0_branch2b"
  top: "res42b0_branch2b"
  scale_param {
    bias_term: true
  }
}
layer {
  name: "res42b0_branch2b_relu"
  type: "ReLU"
  bottom: "res42b0_branch2b"
  top: "res42b0_branch2b"
}
layer {
  name: "res42b0_branch2c"
  type: "Convolution"
  bottom: "res42b0_branch2b"
  top: "res42b0_branch2c"
  param {
    lr_mult: 1
    decay_mult: 1
  }
  param {
    lr_mult: 2
    decay_mult: 0
  }
  convolution_param {
    num_output: 128
    pad: 0
    kernel_size: 1
    stride: 1
    weight_filler {
      type: "xavier"
      std: 0.01
    }
    bias_filler {
      type: "constant"
      value: 0.2
    }
  }
}
layer {
  name: "res42b0_branch2c_bn"
  type: "BatchNorm"
  bottom: "res42b0_branch2c"
  top: "res42b0_branch2c"
  batch_norm_param {
    use_global_stats: false
  }
}
layer {
  name: "res42b0_branch2c_scale"
  type: "Scale"
  bottom: "res42b0_branch2c"
  top: "res42b0_branch2c"
  scale_param {
    bias_term: true
  }
}
layer {
  name: "res42b0"
  type: "Eltwise"
  bottom: "res41b0"
  bottom: "res42b0_branch2c"
  top: "res42b0"
  eltwise_param {
    operation: SUM
  }
}
layer {
  name: "res42b0_relu"
  type: "ReLU"
  bottom: "res42b0"
  top: "res42b0"
}
layer {
  name: "deconv8"
  type: "Deconvolution"
  bottom: "res42b0"
  top: "deconv8"
  param {
    lr_mult: 0
    decay_mult: 0
  }
  convolution_param {
    num_output: 128
    bias_term: false
    pad: 1
    kernel_size: 4
    stride: 2
    weight_filler {
      type: "bilinear"
    }
  }
}
layer {
  name: "add12"
  type: "Eltwise"
  bottom: "res39b0"
  bottom: "deconv8"
  top: "add12"
  eltwise_param {
    operation: SUM
  }
}
layer {
  name: "res43b0_branch2a"
  type: "Convolution"
  bottom: "add12"
  top: "res43b0_branch2a"
  param {
    lr_mult: 1
    decay_mult: 1
  }
  param {
    lr_mult: 2
    decay_mult: 0
  }
  convolution_param {
    num_output: 128
    pad: 0
    kernel_size: 1
    stride: 1
    weight_filler {
      type: "xavier"
      std: 0.01
    }
    bias_filler {
      type: "constant"
      value: 0
    }
  }
}
layer {
  name: "res43b0_branch2a_bn"
  type: "BatchNorm"
  bottom: "res43b0_branch2a"
  top: "res43b0_branch2a"
  batch_norm_param {
    use_global_stats: false
  }
}
layer {
  name: "res43b0_branch2a_scale"
  type: "Scale"
  bottom: "res43b0_branch2a"
  top: "res43b0_branch2a"
  scale_param {
    bias_term: true
  }
}
layer {
  name: "res43b0_branch2a_relu"
  type: "ReLU"
  bottom: "res43b0_branch2a"
  top: "res43b0_branch2a"
}
layer {
  name: "res43b0_branch2b"
  type: "Convolution"
  bottom: "res43b0_branch2a"
  top: "res43b0_branch2b"
  param {
    lr_mult: 1
    decay_mult: 1
  }
  param {
    lr_mult: 2
    decay_mult: 0
  }
  convolution_param {
    num_output: 128
    pad: 1
    kernel_size: 3
    stride: 1
    weight_filler {
      type: "xavier"
      std: 0.01
    }
    bias_filler {
      type: "constant"
      value: 0
    }
  }
}
layer {
  name: "res43b0_branch2b_bn"
  type: "BatchNorm"
  bottom: "res43b0_branch2b"
  top: "res43b0_branch2b"
  batch_norm_param {
    use_global_stats: false
  }
}
layer {
  name: "res43b0_branch2b_scale"
  type: "Scale"
  bottom: "res43b0_branch2b"
  top: "res43b0_branch2b"
  scale_param {
    bias_term: true
  }
}
layer {
  name: "res43b0_branch2b_relu"
  type: "ReLU"
  bottom: "res43b0_branch2b"
  top: "res43b0_branch2b"
}
layer {
  name: "res43b0_branch2c"
  type: "Convolution"
  bottom: "res43b0_branch2b"
  top: "res43b0_branch2c"
  param {
    lr_mult: 1
    decay_mult: 1
  }
  param {
    lr_mult: 2
    decay_mult: 0
  }
  convolution_param {
    num_output: 128
    pad: 0
    kernel_size: 1
    stride: 1
    weight_filler {
      type: "xavier"
      std: 0.01
    }
    bias_filler {
      type: "constant"
      value: 0.2
    }
  }
}
layer {
  name: "res43b0_branch2c_bn"
  type: "BatchNorm"
  bottom: "res43b0_branch2c"
  top: "res43b0_branch2c"
  batch_norm_param {
    use_global_stats: false
  }
}
layer {
  name: "res43b0_branch2c_scale"
  type: "Scale"
  bottom: "res43b0_branch2c"
  top: "res43b0_branch2c"
  scale_param {
    bias_term: true
  }
}
layer {
  name: "res43b0"
  type: "Eltwise"
  bottom: "add12"
  bottom: "res43b0_branch2c"
  top: "res43b0"
  eltwise_param {
    operation: SUM
  }
}
layer {
  name: "res43b0_relu"
  type: "ReLU"
  bottom: "res43b0"
  top: "res43b0"
}
layer {
  name: "deconv9"
  type: "Deconvolution"
  bottom: "res43b0"
  top: "deconv9"
  param {
    lr_mult: 0
    decay_mult: 0
  }
  convolution_param {
    num_output: 128
    bias_term: false
    pad: 1
    kernel_size: 4
    stride: 2
    weight_filler {
      type: "bilinear"
    }
  }
}
layer {
  name: "add13"
  type: "Eltwise"
  bottom: "res37b0"
  bottom: "deconv9"
  top: "add13"
  eltwise_param {
    operation: SUM
  }
}
layer {
  name: "res44b0_branch2a"
  type: "Convolution"
  bottom: "add13"
  top: "res44b0_branch2a"
  param {
    lr_mult: 1
    decay_mult: 1
  }
  param {
    lr_mult: 2
    decay_mult: 0
  }
  convolution_param {
    num_output: 128
    pad: 0
    kernel_size: 1
    stride: 1
    weight_filler {
      type: "xavier"
      std: 0.01
    }
    bias_filler {
      type: "constant"
      value: 0
    }
  }
}
layer {
  name: "res44b0_branch2a_bn"
  type: "BatchNorm"
  bottom: "res44b0_branch2a"
  top: "res44b0_branch2a"
  batch_norm_param {
    use_global_stats: false
  }
}
layer {
  name: "res44b0_branch2a_scale"
  type: "Scale"
  bottom: "res44b0_branch2a"
  top: "res44b0_branch2a"
  scale_param {
    bias_term: true
  }
}
layer {
  name: "res44b0_branch2a_relu"
  type: "ReLU"
  bottom: "res44b0_branch2a"
  top: "res44b0_branch2a"
}
layer {
  name: "res44b0_branch2b"
  type: "Convolution"
  bottom: "res44b0_branch2a"
  top: "res44b0_branch2b"
  param {
    lr_mult: 1
    decay_mult: 1
  }
  param {
    lr_mult: 2
    decay_mult: 0
  }
  convolution_param {
    num_output: 128
    pad: 1
    kernel_size: 3
    stride: 1
    weight_filler {
      type: "xavier"
      std: 0.01
    }
    bias_filler {
      type: "constant"
      value: 0
    }
  }
}
layer {
  name: "res44b0_branch2b_bn"
  type: "BatchNorm"
  bottom: "res44b0_branch2b"
  top: "res44b0_branch2b"
  batch_norm_param {
    use_global_stats: false
  }
}
layer {
  name: "res44b0_branch2b_scale"
  type: "Scale"
  bottom: "res44b0_branch2b"
  top: "res44b0_branch2b"
  scale_param {
    bias_term: true
  }
}
layer {
  name: "res44b0_branch2b_relu"
  type: "ReLU"
  bottom: "res44b0_branch2b"
  top: "res44b0_branch2b"
}
layer {
  name: "res44b0_branch2c"
  type: "Convolution"
  bottom: "res44b0_branch2b"
  top: "res44b0_branch2c"
  param {
    lr_mult: 1
    decay_mult: 1
  }
  param {
    lr_mult: 2
    decay_mult: 0
  }
  convolution_param {
    num_output: 128
    pad: 0
    kernel_size: 1
    stride: 1
    weight_filler {
      type: "xavier"
      std: 0.01
    }
    bias_filler {
      type: "constant"
      value: 0.2
    }
  }
}
layer {
  name: "res44b0_branch2c_bn"
  type: "BatchNorm"
  bottom: "res44b0_branch2c"
  top: "res44b0_branch2c"
  batch_norm_param {
    use_global_stats: false
  }
}
layer {
  name: "res44b0_branch2c_scale"
  type: "Scale"
  bottom: "res44b0_branch2c"
  top: "res44b0_branch2c"
  scale_param {
    bias_term: true
  }
}
layer {
  name: "res44b0"
  type: "Eltwise"
  bottom: "add13"
  bottom: "res44b0_branch2c"
  top: "res44b0"
  eltwise_param {
    operation: SUM
  }
}
layer {
  name: "res44b0_relu"
  type: "ReLU"
  bottom: "res44b0"
  top: "res44b0"
}
layer {
  name: "deconv10"
  type: "Deconvolution"
  bottom: "res44b0"
  top: "deconv10"
  param {
    lr_mult: 0
    decay_mult: 0
  }
  convolution_param {
    num_output: 128
    bias_term: false
    pad: 1
    kernel_size: 4
    stride: 2
    weight_filler {
      type: "bilinear"
    }
  }
}
layer {
  name: "add14"
  type: "Eltwise"
  bottom: "res35b0"
  bottom: "deconv10"
  top: "add14"
  eltwise_param {
    operation: SUM
  }
}
layer {
  name: "res45b0_branch2a"
  type: "Convolution"
  bottom: "add14"
  top: "res45b0_branch2a"
  param {
    lr_mult: 1
    decay_mult: 1
  }
  param {
    lr_mult: 2
    decay_mult: 0
  }
  convolution_param {
    num_output: 128
    pad: 0
    kernel_size: 1
    stride: 1
    weight_filler {
      type: "xavier"
      std: 0.01
    }
    bias_filler {
      type: "constant"
      value: 0
    }
  }
}
layer {
  name: "res45b0_branch2a_bn"
  type: "BatchNorm"
  bottom: "res45b0_branch2a"
  top: "res45b0_branch2a"
  batch_norm_param {
    use_global_stats: false
  }
}
layer {
  name: "res45b0_branch2a_scale"
  type: "Scale"
  bottom: "res45b0_branch2a"
  top: "res45b0_branch2a"
  scale_param {
    bias_term: true
  }
}
layer {
  name: "res45b0_branch2a_relu"
  type: "ReLU"
  bottom: "res45b0_branch2a"
  top: "res45b0_branch2a"
}
layer {
  name: "res45b0_branch2b"
  type: "Convolution"
  bottom: "res45b0_branch2a"
  top: "res45b0_branch2b"
  param {
    lr_mult: 1
    decay_mult: 1
  }
  param {
    lr_mult: 2
    decay_mult: 0
  }
  convolution_param {
    num_output: 128
    pad: 1
    kernel_size: 3
    stride: 1
    weight_filler {
      type: "xavier"
      std: 0.01
    }
    bias_filler {
      type: "constant"
      value: 0
    }
  }
}
layer {
  name: "res45b0_branch2b_bn"
  type: "BatchNorm"
  bottom: "res45b0_branch2b"
  top: "res45b0_branch2b"
  batch_norm_param {
    use_global_stats: false
  }
}
layer {
  name: "res45b0_branch2b_scale"
  type: "Scale"
  bottom: "res45b0_branch2b"
  top: "res45b0_branch2b"
  scale_param {
    bias_term: true
  }
}
layer {
  name: "res45b0_branch2b_relu"
  type: "ReLU"
  bottom: "res45b0_branch2b"
  top: "res45b0_branch2b"
}
layer {
  name: "res45b0_branch2c"
  type: "Convolution"
  bottom: "res45b0_branch2b"
  top: "res45b0_branch2c"
  param {
    lr_mult: 1
    decay_mult: 1
  }
  param {
    lr_mult: 2
    decay_mult: 0
  }
  convolution_param {
    num_output: 128
    pad: 0
    kernel_size: 1
    stride: 1
    weight_filler {
      type: "xavier"
      std: 0.01
    }
    bias_filler {
      type: "constant"
      value: 0.2
    }
  }
}
layer {
  name: "res45b0_branch2c_bn"
  type: "BatchNorm"
  bottom: "res45b0_branch2c"
  top: "res45b0_branch2c"
  batch_norm_param {
    use_global_stats: false
  }
}
layer {
  name: "res45b0_branch2c_scale"
  type: "Scale"
  bottom: "res45b0_branch2c"
  top: "res45b0_branch2c"
  scale_param {
    bias_term: true
  }
}
layer {
  name: "res45b0"
  type: "Eltwise"
  bottom: "add14"
  bottom: "res45b0_branch2c"
  top: "res45b0"
  eltwise_param {
    operation: SUM
  }
}
layer {
  name: "res45b0_relu"
  type: "ReLU"
  bottom: "res45b0"
  top: "res45b0"
}
layer {
  name: "deconv11"
  type: "Deconvolution"
  bottom: "res45b0"
  top: "deconv11"
  param {
    lr_mult: 0
    decay_mult: 0
  }
  convolution_param {
    num_output: 128
    bias_term: false
    pad: 1
    kernel_size: 4
    stride: 2
    weight_filler {
      type: "bilinear"
    }
  }
}
layer {
  name: "add15"
  type: "Eltwise"
  bottom: "res33b0"
  bottom: "deconv11"
  top: "add15"
  eltwise_param {
    operation: SUM
  }
}
layer {
  name: "res46b0_branch2a"
  type: "Convolution"
  bottom: "add15"
  top: "res46b0_branch2a"
  param {
    lr_mult: 1
    decay_mult: 1
  }
  param {
    lr_mult: 2
    decay_mult: 0
  }
  convolution_param {
    num_output: 128
    pad: 0
    kernel_size: 1
    stride: 1
    weight_filler {
      type: "xavier"
      std: 0.01
    }
    bias_filler {
      type: "constant"
      value: 0
    }
  }
}
layer {
  name: "res46b0_branch2a_bn"
  type: "BatchNorm"
  bottom: "res46b0_branch2a"
  top: "res46b0_branch2a"
  batch_norm_param {
    use_global_stats: false
  }
}
layer {
  name: "res46b0_branch2a_scale"
  type: "Scale"
  bottom: "res46b0_branch2a"
  top: "res46b0_branch2a"
  scale_param {
    bias_term: true
  }
}
layer {
  name: "res46b0_branch2a_relu"
  type: "ReLU"
  bottom: "res46b0_branch2a"
  top: "res46b0_branch2a"
}
layer {
  name: "res46b0_branch2b"
  type: "Convolution"
  bottom: "res46b0_branch2a"
  top: "res46b0_branch2b"
  param {
    lr_mult: 1
    decay_mult: 1
  }
  param {
    lr_mult: 2
    decay_mult: 0
  }
  convolution_param {
    num_output: 128
    pad: 1
    kernel_size: 3
    stride: 1
    weight_filler {
      type: "xavier"
      std: 0.01
    }
    bias_filler {
      type: "constant"
      value: 0
    }
  }
}
layer {
  name: "res46b0_branch2b_bn"
  type: "BatchNorm"
  bottom: "res46b0_branch2b"
  top: "res46b0_branch2b"
  batch_norm_param {
    use_global_stats: false
  }
}
layer {
  name: "res46b0_branch2b_scale"
  type: "Scale"
  bottom: "res46b0_branch2b"
  top: "res46b0_branch2b"
  scale_param {
    bias_term: true
  }
}
layer {
  name: "res46b0_branch2b_relu"
  type: "ReLU"
  bottom: "res46b0_branch2b"
  top: "res46b0_branch2b"
}
layer {
  name: "res46b0_branch2c"
  type: "Convolution"
  bottom: "res46b0_branch2b"
  top: "res46b0_branch2c"
  param {
    lr_mult: 1
    decay_mult: 1
  }
  param {
    lr_mult: 2
    decay_mult: 0
  }
  convolution_param {
    num_output: 128
    pad: 0
    kernel_size: 1
    stride: 1
    weight_filler {
      type: "xavier"
      std: 0.01
    }
    bias_filler {
      type: "constant"
      value: 0.2
    }
  }
}
layer {
  name: "res46b0_branch2c_bn"
  type: "BatchNorm"
  bottom: "res46b0_branch2c"
  top: "res46b0_branch2c"
  batch_norm_param {
    use_global_stats: false
  }
}
layer {
  name: "res46b0_branch2c_scale"
  type: "Scale"
  bottom: "res46b0_branch2c"
  top: "res46b0_branch2c"
  scale_param {
    bias_term: true
  }
}
layer {
  name: "res46b0"
  type: "Eltwise"
  bottom: "add15"
  bottom: "res46b0_branch2c"
  top: "res46b0"
  eltwise_param {
    operation: SUM
  }
}
layer {
  name: "res46b0_relu"
  type: "ReLU"
  bottom: "res46b0"
  top: "res46b0"
}
layer {
  name: "conv9"
  type: "Convolution"
  bottom: "res46b0"
  top: "conv9"
  param {
    lr_mult: 1
    decay_mult: 1
  }
  param {
    lr_mult: 2
    decay_mult: 0
  }
  convolution_param {
    num_output: 128
    pad: 0
    kernel_size: 1
    stride: 1
    weight_filler {
      type: "xavier"
      std: 0.01
    }
    bias_filler {
      type: "constant"
      value: 0
    }
  }
}
layer {
  name: "bn3"
  type: "BatchNorm"
  bottom: "conv9"
  top: "conv9"
  batch_norm_param {
    use_global_stats: false
  }
}
layer {
  name: "scale3"
  type: "Scale"
  bottom: "conv9"
  top: "conv9"
  scale_param {
    bias_term: true
  }
}
layer {
  name: "relu3"
  type: "ReLU"
  bottom: "conv9"
  top: "conv9"
}
layer {
  name: "conv10"
  type: "Convolution"
  bottom: "conv9"
  top: "conv10"
  param {
    lr_mult: 1
    decay_mult: 1
  }
  param {
    lr_mult: 2
    decay_mult: 0
  }
  convolution_param {
    num_output: 22
    pad: 0
    kernel_size: 1
    stride: 1
    weight_filler {
      type: "xavier"
      std: 0.01
    }
    bias_filler {
      type: "constant"
      value: 0
    }
  }
}
layer {
  name: "loss2"
  type: "EuclideanLoss"
  bottom: "conv10"
  bottom: "label_heat"
  top: "loss2"
}
layer {
  name: "conv11"
  type: "Convolution"
  bottom: "conv9"
  top: "conv11"
  param {
    lr_mult: 1
    decay_mult: 1
  }
  param {
    lr_mult: 2
    decay_mult: 0
  }
  convolution_param {
    num_output: 128
    pad: 0
    kernel_size: 1
    stride: 1
    weight_filler {
      type: "xavier"
      std: 0.01
    }
    bias_filler {
      type: "constant"
      value: 0
    }
  }
}
layer {
  name: "conv12"
  type: "Convolution"
  bottom: "conv10"
  top: "conv12"
  param {
    lr_mult: 1
    decay_mult: 1
  }
  param {
    lr_mult: 2
    decay_mult: 0
  }
  convolution_param {
    num_output: 128
    pad: 0
    kernel_size: 1
    stride: 1
    weight_filler {
      type: "xavier"
      std: 0.01
    }
    bias_filler {
      type: "constant"
      value: 0
    }
  }
}
layer {
  name: "add16"
  type: "Eltwise"
  bottom: "conv11"
  bottom: "conv12"
  top: "add16"
  eltwise_param {
    operation: SUM
  }
}
layer {
  name: "add17"
  type: "Eltwise"
  bottom: "add16"
  bottom: "add11"
  top: "add17"
  eltwise_param {
    operation: SUM
  }
}
layer {
  name: "res47b0_branch2a"
  type: "Convolution"
  bottom: "add17"
  top: "res47b0_branch2a"
  param {
    lr_mult: 1
    decay_mult: 1
  }
  param {
    lr_mult: 2
    decay_mult: 0
  }
  convolution_param {
    num_output: 128
    pad: 0
    kernel_size: 1
    stride: 1
    weight_filler {
      type: "xavier"
      std: 0.01
    }
    bias_filler {
      type: "constant"
      value: 0
    }
  }
}
layer {
  name: "res47b0_branch2a_bn"
  type: "BatchNorm"
  bottom: "res47b0_branch2a"
  top: "res47b0_branch2a"
  batch_norm_param {
    use_global_stats: false
  }
}
layer {
  name: "res47b0_branch2a_scale"
  type: "Scale"
  bottom: "res47b0_branch2a"
  top: "res47b0_branch2a"
  scale_param {
    bias_term: true
  }
}
layer {
  name: "res47b0_branch2a_relu"
  type: "ReLU"
  bottom: "res47b0_branch2a"
  top: "res47b0_branch2a"
}
layer {
  name: "res47b0_branch2b"
  type: "Convolution"
  bottom: "res47b0_branch2a"
  top: "res47b0_branch2b"
  param {
    lr_mult: 1
    decay_mult: 1
  }
  param {
    lr_mult: 2
    decay_mult: 0
  }
  convolution_param {
    num_output: 128
    pad: 1
    kernel_size: 3
    stride: 1
    weight_filler {
      type: "xavier"
      std: 0.01
    }
    bias_filler {
      type: "constant"
      value: 0
    }
  }
}
layer {
  name: "res47b0_branch2b_bn"
  type: "BatchNorm"
  bottom: "res47b0_branch2b"
  top: "res47b0_branch2b"
  batch_norm_param {
    use_global_stats: false
  }
}
layer {
  name: "res47b0_branch2b_scale"
  type: "Scale"
  bottom: "res47b0_branch2b"
  top: "res47b0_branch2b"
  scale_param {
    bias_term: true
  }
}
layer {
  name: "res47b0_branch2b_relu"
  type: "ReLU"
  bottom: "res47b0_branch2b"
  top: "res47b0_branch2b"
}
layer {
  name: "res47b0_branch2c"
  type: "Convolution"
  bottom: "res47b0_branch2b"
  top: "res47b0_branch2c"
  param {
    lr_mult: 1
    decay_mult: 1
  }
  param {
    lr_mult: 2
    decay_mult: 0
  }
  convolution_param {
    num_output: 128
    pad: 0
    kernel_size: 1
    stride: 1
    weight_filler {
      type: "xavier"
      std: 0.01
    }
    bias_filler {
      type: "constant"
      value: 0.2
    }
  }
}
layer {
  name: "res47b0_branch2c_bn"
  type: "BatchNorm"
  bottom: "res47b0_branch2c"
  top: "res47b0_branch2c"
  batch_norm_param {
    use_global_stats: false
  }
}
layer {
  name: "res47b0_branch2c_scale"
  type: "Scale"
  bottom: "res47b0_branch2c"
  top: "res47b0_branch2c"
  scale_param {
    bias_term: true
  }
}
layer {
  name: "res47b0"
  type: "Eltwise"
  bottom: "add17"
  bottom: "res47b0_branch2c"
  top: "res47b0"
  eltwise_param {
    operation: SUM
  }
}
layer {
  name: "res47b0_relu"
  type: "ReLU"
  bottom: "res47b0"
  top: "res47b0"
}
layer {
  name: "pool13"
  type: "Pooling"
  bottom: "add17"
  top: "pool13"
  pooling_param {
    pool: MAX
    kernel_size: 2
    stride: 2
  }
}
layer {
  name: "res48b0_branch2a"
  type: "Convolution"
  bottom: "pool13"
  top: "res48b0_branch2a"
  param {
    lr_mult: 1
    decay_mult: 1
  }
  param {
    lr_mult: 2
    decay_mult: 0
  }
  convolution_param {
    num_output: 128
    pad: 0
    kernel_size: 1
    stride: 1
    weight_filler {
      type: "xavier"
      std: 0.01
    }
    bias_filler {
      type: "constant"
      value: 0
    }
  }
}
layer {
  name: "res48b0_branch2a_bn"
  type: "BatchNorm"
  bottom: "res48b0_branch2a"
  top: "res48b0_branch2a"
  batch_norm_param {
    use_global_stats: false
  }
}
layer {
  name: "res48b0_branch2a_scale"
  type: "Scale"
  bottom: "res48b0_branch2a"
  top: "res48b0_branch2a"
  scale_param {
    bias_term: true
  }
}
layer {
  name: "res48b0_branch2a_relu"
  type: "ReLU"
  bottom: "res48b0_branch2a"
  top: "res48b0_branch2a"
}
layer {
  name: "res48b0_branch2b"
  type: "Convolution"
  bottom: "res48b0_branch2a"
  top: "res48b0_branch2b"
  param {
    lr_mult: 1
    decay_mult: 1
  }
  param {
    lr_mult: 2
    decay_mult: 0
  }
  convolution_param {
    num_output: 128
    pad: 1
    kernel_size: 3
    stride: 1
    weight_filler {
      type: "xavier"
      std: 0.01
    }
    bias_filler {
      type: "constant"
      value: 0
    }
  }
}
layer {
  name: "res48b0_branch2b_bn"
  type: "BatchNorm"
  bottom: "res48b0_branch2b"
  top: "res48b0_branch2b"
  batch_norm_param {
    use_global_stats: false
  }
}
layer {
  name: "res48b0_branch2b_scale"
  type: "Scale"
  bottom: "res48b0_branch2b"
  top: "res48b0_branch2b"
  scale_param {
    bias_term: true
  }
}
layer {
  name: "res48b0_branch2b_relu"
  type: "ReLU"
  bottom: "res48b0_branch2b"
  top: "res48b0_branch2b"
}
layer {
  name: "res48b0_branch2c"
  type: "Convolution"
  bottom: "res48b0_branch2b"
  top: "res48b0_branch2c"
  param {
    lr_mult: 1
    decay_mult: 1
  }
  param {
    lr_mult: 2
    decay_mult: 0
  }
  convolution_param {
    num_output: 128
    pad: 0
    kernel_size: 1
    stride: 1
    weight_filler {
      type: "xavier"
      std: 0.01
    }
    bias_filler {
      type: "constant"
      value: 0.2
    }
  }
}
layer {
  name: "res48b0_branch2c_bn"
  type: "BatchNorm"
  bottom: "res48b0_branch2c"
  top: "res48b0_branch2c"
  batch_norm_param {
    use_global_stats: false
  }
}
layer {
  name: "res48b0_branch2c_scale"
  type: "Scale"
  bottom: "res48b0_branch2c"
  top: "res48b0_branch2c"
  scale_param {
    bias_term: true
  }
}
layer {
  name: "res48b0"
  type: "Eltwise"
  bottom: "pool13"
  bottom: "res48b0_branch2c"
  top: "res48b0"
  eltwise_param {
    operation: SUM
  }
}
layer {
  name: "res48b0_relu"
  type: "ReLU"
  bottom: "res48b0"
  top: "res48b0"
}
layer {
  name: "res49b0_branch2a"
  type: "Convolution"
  bottom: "res48b0"
  top: "res49b0_branch2a"
  param {
    lr_mult: 1
    decay_mult: 1
  }
  param {
    lr_mult: 2
    decay_mult: 0
  }
  convolution_param {
    num_output: 128
    pad: 0
    kernel_size: 1
    stride: 1
    weight_filler {
      type: "xavier"
      std: 0.01
    }
    bias_filler {
      type: "constant"
      value: 0
    }
  }
}
layer {
  name: "res49b0_branch2a_bn"
  type: "BatchNorm"
  bottom: "res49b0_branch2a"
  top: "res49b0_branch2a"
  batch_norm_param {
    use_global_stats: false
  }
}
layer {
  name: "res49b0_branch2a_scale"
  type: "Scale"
  bottom: "res49b0_branch2a"
  top: "res49b0_branch2a"
  scale_param {
    bias_term: true
  }
}
layer {
  name: "res49b0_branch2a_relu"
  type: "ReLU"
  bottom: "res49b0_branch2a"
  top: "res49b0_branch2a"
}
layer {
  name: "res49b0_branch2b"
  type: "Convolution"
  bottom: "res49b0_branch2a"
  top: "res49b0_branch2b"
  param {
    lr_mult: 1
    decay_mult: 1
  }
  param {
    lr_mult: 2
    decay_mult: 0
  }
  convolution_param {
    num_output: 128
    pad: 1
    kernel_size: 3
    stride: 1
    weight_filler {
      type: "xavier"
      std: 0.01
    }
    bias_filler {
      type: "constant"
      value: 0
    }
  }
}
layer {
  name: "res49b0_branch2b_bn"
  type: "BatchNorm"
  bottom: "res49b0_branch2b"
  top: "res49b0_branch2b"
  batch_norm_param {
    use_global_stats: false
  }
}
layer {
  name: "res49b0_branch2b_scale"
  type: "Scale"
  bottom: "res49b0_branch2b"
  top: "res49b0_branch2b"
  scale_param {
    bias_term: true
  }
}
layer {
  name: "res49b0_branch2b_relu"
  type: "ReLU"
  bottom: "res49b0_branch2b"
  top: "res49b0_branch2b"
}
layer {
  name: "res49b0_branch2c"
  type: "Convolution"
  bottom: "res49b0_branch2b"
  top: "res49b0_branch2c"
  param {
    lr_mult: 1
    decay_mult: 1
  }
  param {
    lr_mult: 2
    decay_mult: 0
  }
  convolution_param {
    num_output: 128
    pad: 0
    kernel_size: 1
    stride: 1
    weight_filler {
      type: "xavier"
      std: 0.01
    }
    bias_filler {
      type: "constant"
      value: 0.2
    }
  }
}
layer {
  name: "res49b0_branch2c_bn"
  type: "BatchNorm"
  bottom: "res49b0_branch2c"
  top: "res49b0_branch2c"
  batch_norm_param {
    use_global_stats: false
  }
}
layer {
  name: "res49b0_branch2c_scale"
  type: "Scale"
  bottom: "res49b0_branch2c"
  top: "res49b0_branch2c"
  scale_param {
    bias_term: true
  }
}
layer {
  name: "res49b0"
  type: "Eltwise"
  bottom: "res48b0"
  bottom: "res49b0_branch2c"
  top: "res49b0"
  eltwise_param {
    operation: SUM
  }
}
layer {
  name: "res49b0_relu"
  type: "ReLU"
  bottom: "res49b0"
  top: "res49b0"
}
layer {
  name: "pool14"
  type: "Pooling"
  bottom: "res48b0"
  top: "pool14"
  pooling_param {
    pool: MAX
    kernel_size: 2
    stride: 2
  }
}
layer {
  name: "res50b0_branch2a"
  type: "Convolution"
  bottom: "pool14"
  top: "res50b0_branch2a"
  param {
    lr_mult: 1
    decay_mult: 1
  }
  param {
    lr_mult: 2
    decay_mult: 0
  }
  convolution_param {
    num_output: 128
    pad: 0
    kernel_size: 1
    stride: 1
    weight_filler {
      type: "xavier"
      std: 0.01
    }
    bias_filler {
      type: "constant"
      value: 0
    }
  }
}
layer {
  name: "res50b0_branch2a_bn"
  type: "BatchNorm"
  bottom: "res50b0_branch2a"
  top: "res50b0_branch2a"
  batch_norm_param {
    use_global_stats: false
  }
}
layer {
  name: "res50b0_branch2a_scale"
  type: "Scale"
  bottom: "res50b0_branch2a"
  top: "res50b0_branch2a"
  scale_param {
    bias_term: true
  }
}
layer {
  name: "res50b0_branch2a_relu"
  type: "ReLU"
  bottom: "res50b0_branch2a"
  top: "res50b0_branch2a"
}
layer {
  name: "res50b0_branch2b"
  type: "Convolution"
  bottom: "res50b0_branch2a"
  top: "res50b0_branch2b"
  param {
    lr_mult: 1
    decay_mult: 1
  }
  param {
    lr_mult: 2
    decay_mult: 0
  }
  convolution_param {
    num_output: 128
    pad: 1
    kernel_size: 3
    stride: 1
    weight_filler {
      type: "xavier"
      std: 0.01
    }
    bias_filler {
      type: "constant"
      value: 0
    }
  }
}
layer {
  name: "res50b0_branch2b_bn"
  type: "BatchNorm"
  bottom: "res50b0_branch2b"
  top: "res50b0_branch2b"
  batch_norm_param {
    use_global_stats: false
  }
}
layer {
  name: "res50b0_branch2b_scale"
  type: "Scale"
  bottom: "res50b0_branch2b"
  top: "res50b0_branch2b"
  scale_param {
    bias_term: true
  }
}
layer {
  name: "res50b0_branch2b_relu"
  type: "ReLU"
  bottom: "res50b0_branch2b"
  top: "res50b0_branch2b"
}
layer {
  name: "res50b0_branch2c"
  type: "Convolution"
  bottom: "res50b0_branch2b"
  top: "res50b0_branch2c"
  param {
    lr_mult: 1
    decay_mult: 1
  }
  param {
    lr_mult: 2
    decay_mult: 0
  }
  convolution_param {
    num_output: 128
    pad: 0
    kernel_size: 1
    stride: 1
    weight_filler {
      type: "xavier"
      std: 0.01
    }
    bias_filler {
      type: "constant"
      value: 0.2
    }
  }
}
layer {
  name: "res50b0_branch2c_bn"
  type: "BatchNorm"
  bottom: "res50b0_branch2c"
  top: "res50b0_branch2c"
  batch_norm_param {
    use_global_stats: false
  }
}
layer {
  name: "res50b0_branch2c_scale"
  type: "Scale"
  bottom: "res50b0_branch2c"
  top: "res50b0_branch2c"
  scale_param {
    bias_term: true
  }
}
layer {
  name: "res50b0"
  type: "Eltwise"
  bottom: "pool14"
  bottom: "res50b0_branch2c"
  top: "res50b0"
  eltwise_param {
    operation: SUM
  }
}
layer {
  name: "res50b0_relu"
  type: "ReLU"
  bottom: "res50b0"
  top: "res50b0"
}
layer {
  name: "res51b0_branch2a"
  type: "Convolution"
  bottom: "res50b0"
  top: "res51b0_branch2a"
  param {
    lr_mult: 1
    decay_mult: 1
  }
  param {
    lr_mult: 2
    decay_mult: 0
  }
  convolution_param {
    num_output: 128
    pad: 0
    kernel_size: 1
    stride: 1
    weight_filler {
      type: "xavier"
      std: 0.01
    }
    bias_filler {
      type: "constant"
      value: 0
    }
  }
}
layer {
  name: "res51b0_branch2a_bn"
  type: "BatchNorm"
  bottom: "res51b0_branch2a"
  top: "res51b0_branch2a"
  batch_norm_param {
    use_global_stats: false
  }
}
layer {
  name: "res51b0_branch2a_scale"
  type: "Scale"
  bottom: "res51b0_branch2a"
  top: "res51b0_branch2a"
  scale_param {
    bias_term: true
  }
}
layer {
  name: "res51b0_branch2a_relu"
  type: "ReLU"
  bottom: "res51b0_branch2a"
  top: "res51b0_branch2a"
}
layer {
  name: "res51b0_branch2b"
  type: "Convolution"
  bottom: "res51b0_branch2a"
  top: "res51b0_branch2b"
  param {
    lr_mult: 1
    decay_mult: 1
  }
  param {
    lr_mult: 2
    decay_mult: 0
  }
  convolution_param {
    num_output: 128
    pad: 1
    kernel_size: 3
    stride: 1
    weight_filler {
      type: "xavier"
      std: 0.01
    }
    bias_filler {
      type: "constant"
      value: 0
    }
  }
}
layer {
  name: "res51b0_branch2b_bn"
  type: "BatchNorm"
  bottom: "res51b0_branch2b"
  top: "res51b0_branch2b"
  batch_norm_param {
    use_global_stats: false
  }
}
layer {
  name: "res51b0_branch2b_scale"
  type: "Scale"
  bottom: "res51b0_branch2b"
  top: "res51b0_branch2b"
  scale_param {
    bias_term: true
  }
}
layer {
  name: "res51b0_branch2b_relu"
  type: "ReLU"
  bottom: "res51b0_branch2b"
  top: "res51b0_branch2b"
}
layer {
  name: "res51b0_branch2c"
  type: "Convolution"
  bottom: "res51b0_branch2b"
  top: "res51b0_branch2c"
  param {
    lr_mult: 1
    decay_mult: 1
  }
  param {
    lr_mult: 2
    decay_mult: 0
  }
  convolution_param {
    num_output: 128
    pad: 0
    kernel_size: 1
    stride: 1
    weight_filler {
      type: "xavier"
      std: 0.01
    }
    bias_filler {
      type: "constant"
      value: 0.2
    }
  }
}
layer {
  name: "res51b0_branch2c_bn"
  type: "BatchNorm"
  bottom: "res51b0_branch2c"
  top: "res51b0_branch2c"
  batch_norm_param {
    use_global_stats: false
  }
}
layer {
  name: "res51b0_branch2c_scale"
  type: "Scale"
  bottom: "res51b0_branch2c"
  top: "res51b0_branch2c"
  scale_param {
    bias_term: true
  }
}
layer {
  name: "res51b0"
  type: "Eltwise"
  bottom: "res50b0"
  bottom: "res51b0_branch2c"
  top: "res51b0"
  eltwise_param {
    operation: SUM
  }
}
layer {
  name: "res51b0_relu"
  type: "ReLU"
  bottom: "res51b0"
  top: "res51b0"
}
layer {
  name: "pool15"
  type: "Pooling"
  bottom: "res50b0"
  top: "pool15"
  pooling_param {
    pool: MAX
    kernel_size: 2
    stride: 2
  }
}
layer {
  name: "res52b0_branch2a"
  type: "Convolution"
  bottom: "pool15"
  top: "res52b0_branch2a"
  param {
    lr_mult: 1
    decay_mult: 1
  }
  param {
    lr_mult: 2
    decay_mult: 0
  }
  convolution_param {
    num_output: 128
    pad: 0
    kernel_size: 1
    stride: 1
    weight_filler {
      type: "xavier"
      std: 0.01
    }
    bias_filler {
      type: "constant"
      value: 0
    }
  }
}
layer {
  name: "res52b0_branch2a_bn"
  type: "BatchNorm"
  bottom: "res52b0_branch2a"
  top: "res52b0_branch2a"
  batch_norm_param {
    use_global_stats: false
  }
}
layer {
  name: "res52b0_branch2a_scale"
  type: "Scale"
  bottom: "res52b0_branch2a"
  top: "res52b0_branch2a"
  scale_param {
    bias_term: true
  }
}
layer {
  name: "res52b0_branch2a_relu"
  type: "ReLU"
  bottom: "res52b0_branch2a"
  top: "res52b0_branch2a"
}
layer {
  name: "res52b0_branch2b"
  type: "Convolution"
  bottom: "res52b0_branch2a"
  top: "res52b0_branch2b"
  param {
    lr_mult: 1
    decay_mult: 1
  }
  param {
    lr_mult: 2
    decay_mult: 0
  }
  convolution_param {
    num_output: 128
    pad: 1
    kernel_size: 3
    stride: 1
    weight_filler {
      type: "xavier"
      std: 0.01
    }
    bias_filler {
      type: "constant"
      value: 0
    }
  }
}
layer {
  name: "res52b0_branch2b_bn"
  type: "BatchNorm"
  bottom: "res52b0_branch2b"
  top: "res52b0_branch2b"
  batch_norm_param {
    use_global_stats: false
  }
}
layer {
  name: "res52b0_branch2b_scale"
  type: "Scale"
  bottom: "res52b0_branch2b"
  top: "res52b0_branch2b"
  scale_param {
    bias_term: true
  }
}
layer {
  name: "res52b0_branch2b_relu"
  type: "ReLU"
  bottom: "res52b0_branch2b"
  top: "res52b0_branch2b"
}
layer {
  name: "res52b0_branch2c"
  type: "Convolution"
  bottom: "res52b0_branch2b"
  top: "res52b0_branch2c"
  param {
    lr_mult: 1
    decay_mult: 1
  }
  param {
    lr_mult: 2
    decay_mult: 0
  }
  convolution_param {
    num_output: 128
    pad: 0
    kernel_size: 1
    stride: 1
    weight_filler {
      type: "xavier"
      std: 0.01
    }
    bias_filler {
      type: "constant"
      value: 0.2
    }
  }
}
layer {
  name: "res52b0_branch2c_bn"
  type: "BatchNorm"
  bottom: "res52b0_branch2c"
  top: "res52b0_branch2c"
  batch_norm_param {
    use_global_stats: false
  }
}
layer {
  name: "res52b0_branch2c_scale"
  type: "Scale"
  bottom: "res52b0_branch2c"
  top: "res52b0_branch2c"
  scale_param {
    bias_term: true
  }
}
layer {
  name: "res52b0"
  type: "Eltwise"
  bottom: "pool15"
  bottom: "res52b0_branch2c"
  top: "res52b0"
  eltwise_param {
    operation: SUM
  }
}
layer {
  name: "res52b0_relu"
  type: "ReLU"
  bottom: "res52b0"
  top: "res52b0"
}
layer {
  name: "res53b0_branch2a"
  type: "Convolution"
  bottom: "res52b0"
  top: "res53b0_branch2a"
  param {
    lr_mult: 1
    decay_mult: 1
  }
  param {
    lr_mult: 2
    decay_mult: 0
  }
  convolution_param {
    num_output: 128
    pad: 0
    kernel_size: 1
    stride: 1
    weight_filler {
      type: "xavier"
      std: 0.01
    }
    bias_filler {
      type: "constant"
      value: 0
    }
  }
}
layer {
  name: "res53b0_branch2a_bn"
  type: "BatchNorm"
  bottom: "res53b0_branch2a"
  top: "res53b0_branch2a"
  batch_norm_param {
    use_global_stats: false
  }
}
layer {
  name: "res53b0_branch2a_scale"
  type: "Scale"
  bottom: "res53b0_branch2a"
  top: "res53b0_branch2a"
  scale_param {
    bias_term: true
  }
}
layer {
  name: "res53b0_branch2a_relu"
  type: "ReLU"
  bottom: "res53b0_branch2a"
  top: "res53b0_branch2a"
}
layer {
  name: "res53b0_branch2b"
  type: "Convolution"
  bottom: "res53b0_branch2a"
  top: "res53b0_branch2b"
  param {
    lr_mult: 1
    decay_mult: 1
  }
  param {
    lr_mult: 2
    decay_mult: 0
  }
  convolution_param {
    num_output: 128
    pad: 1
    kernel_size: 3
    stride: 1
    weight_filler {
      type: "xavier"
      std: 0.01
    }
    bias_filler {
      type: "constant"
      value: 0
    }
  }
}
layer {
  name: "res53b0_branch2b_bn"
  type: "BatchNorm"
  bottom: "res53b0_branch2b"
  top: "res53b0_branch2b"
  batch_norm_param {
    use_global_stats: false
  }
}
layer {
  name: "res53b0_branch2b_scale"
  type: "Scale"
  bottom: "res53b0_branch2b"
  top: "res53b0_branch2b"
  scale_param {
    bias_term: true
  }
}
layer {
  name: "res53b0_branch2b_relu"
  type: "ReLU"
  bottom: "res53b0_branch2b"
  top: "res53b0_branch2b"
}
layer {
  name: "res53b0_branch2c"
  type: "Convolution"
  bottom: "res53b0_branch2b"
  top: "res53b0_branch2c"
  param {
    lr_mult: 1
    decay_mult: 1
  }
  param {
    lr_mult: 2
    decay_mult: 0
  }
  convolution_param {
    num_output: 128
    pad: 0
    kernel_size: 1
    stride: 1
    weight_filler {
      type: "xavier"
      std: 0.01
    }
    bias_filler {
      type: "constant"
      value: 0.2
    }
  }
}
layer {
  name: "res53b0_branch2c_bn"
  type: "BatchNorm"
  bottom: "res53b0_branch2c"
  top: "res53b0_branch2c"
  batch_norm_param {
    use_global_stats: false
  }
}
layer {
  name: "res53b0_branch2c_scale"
  type: "Scale"
  bottom: "res53b0_branch2c"
  top: "res53b0_branch2c"
  scale_param {
    bias_term: true
  }
}
layer {
  name: "res53b0"
  type: "Eltwise"
  bottom: "res52b0"
  bottom: "res53b0_branch2c"
  top: "res53b0"
  eltwise_param {
    operation: SUM
  }
}
layer {
  name: "res53b0_relu"
  type: "ReLU"
  bottom: "res53b0"
  top: "res53b0"
}
layer {
  name: "pool16"
  type: "Pooling"
  bottom: "res52b0"
  top: "pool16"
  pooling_param {
    pool: MAX
    kernel_size: 2
    stride: 2
  }
}
layer {
  name: "res54b0_branch2a"
  type: "Convolution"
  bottom: "pool16"
  top: "res54b0_branch2a"
  param {
    lr_mult: 1
    decay_mult: 1
  }
  param {
    lr_mult: 2
    decay_mult: 0
  }
  convolution_param {
    num_output: 128
    pad: 0
    kernel_size: 1
    stride: 1
    weight_filler {
      type: "xavier"
      std: 0.01
    }
    bias_filler {
      type: "constant"
      value: 0
    }
  }
}
layer {
  name: "res54b0_branch2a_bn"
  type: "BatchNorm"
  bottom: "res54b0_branch2a"
  top: "res54b0_branch2a"
  batch_norm_param {
    use_global_stats: false
  }
}
layer {
  name: "res54b0_branch2a_scale"
  type: "Scale"
  bottom: "res54b0_branch2a"
  top: "res54b0_branch2a"
  scale_param {
    bias_term: true
  }
}
layer {
  name: "res54b0_branch2a_relu"
  type: "ReLU"
  bottom: "res54b0_branch2a"
  top: "res54b0_branch2a"
}
layer {
  name: "res54b0_branch2b"
  type: "Convolution"
  bottom: "res54b0_branch2a"
  top: "res54b0_branch2b"
  param {
    lr_mult: 1
    decay_mult: 1
  }
  param {
    lr_mult: 2
    decay_mult: 0
  }
  convolution_param {
    num_output: 128
    pad: 1
    kernel_size: 3
    stride: 1
    weight_filler {
      type: "xavier"
      std: 0.01
    }
    bias_filler {
      type: "constant"
      value: 0
    }
  }
}
layer {
  name: "res54b0_branch2b_bn"
  type: "BatchNorm"
  bottom: "res54b0_branch2b"
  top: "res54b0_branch2b"
  batch_norm_param {
    use_global_stats: false
  }
}
layer {
  name: "res54b0_branch2b_scale"
  type: "Scale"
  bottom: "res54b0_branch2b"
  top: "res54b0_branch2b"
  scale_param {
    bias_term: true
  }
}
layer {
  name: "res54b0_branch2b_relu"
  type: "ReLU"
  bottom: "res54b0_branch2b"
  top: "res54b0_branch2b"
}
layer {
  name: "res54b0_branch2c"
  type: "Convolution"
  bottom: "res54b0_branch2b"
  top: "res54b0_branch2c"
  param {
    lr_mult: 1
    decay_mult: 1
  }
  param {
    lr_mult: 2
    decay_mult: 0
  }
  convolution_param {
    num_output: 128
    pad: 0
    kernel_size: 1
    stride: 1
    weight_filler {
      type: "xavier"
      std: 0.01
    }
    bias_filler {
      type: "constant"
      value: 0.2
    }
  }
}
layer {
  name: "res54b0_branch2c_bn"
  type: "BatchNorm"
  bottom: "res54b0_branch2c"
  top: "res54b0_branch2c"
  batch_norm_param {
    use_global_stats: false
  }
}
layer {
  name: "res54b0_branch2c_scale"
  type: "Scale"
  bottom: "res54b0_branch2c"
  top: "res54b0_branch2c"
  scale_param {
    bias_term: true
  }
}
layer {
  name: "res54b0"
  type: "Eltwise"
  bottom: "pool16"
  bottom: "res54b0_branch2c"
  top: "res54b0"
  eltwise_param {
    operation: SUM
  }
}
layer {
  name: "res54b0_relu"
  type: "ReLU"
  bottom: "res54b0"
  top: "res54b0"
}
layer {
  name: "res55b0_branch2a"
  type: "Convolution"
  bottom: "res54b0"
  top: "res55b0_branch2a"
  param {
    lr_mult: 1
    decay_mult: 1
  }
  param {
    lr_mult: 2
    decay_mult: 0
  }
  convolution_param {
    num_output: 128
    pad: 0
    kernel_size: 1
    stride: 1
    weight_filler {
      type: "xavier"
      std: 0.01
    }
    bias_filler {
      type: "constant"
      value: 0
    }
  }
}
layer {
  name: "res55b0_branch2a_bn"
  type: "BatchNorm"
  bottom: "res55b0_branch2a"
  top: "res55b0_branch2a"
  batch_norm_param {
    use_global_stats: false
  }
}
layer {
  name: "res55b0_branch2a_scale"
  type: "Scale"
  bottom: "res55b0_branch2a"
  top: "res55b0_branch2a"
  scale_param {
    bias_term: true
  }
}
layer {
  name: "res55b0_branch2a_relu"
  type: "ReLU"
  bottom: "res55b0_branch2a"
  top: "res55b0_branch2a"
}
layer {
  name: "res55b0_branch2b"
  type: "Convolution"
  bottom: "res55b0_branch2a"
  top: "res55b0_branch2b"
  param {
    lr_mult: 1
    decay_mult: 1
  }
  param {
    lr_mult: 2
    decay_mult: 0
  }
  convolution_param {
    num_output: 128
    pad: 1
    kernel_size: 3
    stride: 1
    weight_filler {
      type: "xavier"
      std: 0.01
    }
    bias_filler {
      type: "constant"
      value: 0
    }
  }
}
layer {
  name: "res55b0_branch2b_bn"
  type: "BatchNorm"
  bottom: "res55b0_branch2b"
  top: "res55b0_branch2b"
  batch_norm_param {
    use_global_stats: false
  }
}
layer {
  name: "res55b0_branch2b_scale"
  type: "Scale"
  bottom: "res55b0_branch2b"
  top: "res55b0_branch2b"
  scale_param {
    bias_term: true
  }
}
layer {
  name: "res55b0_branch2b_relu"
  type: "ReLU"
  bottom: "res55b0_branch2b"
  top: "res55b0_branch2b"
}
layer {
  name: "res55b0_branch2c"
  type: "Convolution"
  bottom: "res55b0_branch2b"
  top: "res55b0_branch2c"
  param {
    lr_mult: 1
    decay_mult: 1
  }
  param {
    lr_mult: 2
    decay_mult: 0
  }
  convolution_param {
    num_output: 128
    pad: 0
    kernel_size: 1
    stride: 1
    weight_filler {
      type: "xavier"
      std: 0.01
    }
    bias_filler {
      type: "constant"
      value: 0.2
    }
  }
}
layer {
  name: "res55b0_branch2c_bn"
  type: "BatchNorm"
  bottom: "res55b0_branch2c"
  top: "res55b0_branch2c"
  batch_norm_param {
    use_global_stats: false
  }
}
layer {
  name: "res55b0_branch2c_scale"
  type: "Scale"
  bottom: "res55b0_branch2c"
  top: "res55b0_branch2c"
  scale_param {
    bias_term: true
  }
}
layer {
  name: "res55b0"
  type: "Eltwise"
  bottom: "res54b0"
  bottom: "res55b0_branch2c"
  top: "res55b0"
  eltwise_param {
    operation: SUM
  }
}
layer {
  name: "res55b0_relu"
  type: "ReLU"
  bottom: "res55b0"
  top: "res55b0"
}
layer {
  name: "res56b0_branch2a"
  type: "Convolution"
  bottom: "res55b0"
  top: "res56b0_branch2a"
  param {
    lr_mult: 1
    decay_mult: 1
  }
  param {
    lr_mult: 2
    decay_mult: 0
  }
  convolution_param {
    num_output: 128
    pad: 0
    kernel_size: 1
    stride: 1
    weight_filler {
      type: "xavier"
      std: 0.01
    }
    bias_filler {
      type: "constant"
      value: 0
    }
  }
}
layer {
  name: "res56b0_branch2a_bn"
  type: "BatchNorm"
  bottom: "res56b0_branch2a"
  top: "res56b0_branch2a"
  batch_norm_param {
    use_global_stats: false
  }
}
layer {
  name: "res56b0_branch2a_scale"
  type: "Scale"
  bottom: "res56b0_branch2a"
  top: "res56b0_branch2a"
  scale_param {
    bias_term: true
  }
}
layer {
  name: "res56b0_branch2a_relu"
  type: "ReLU"
  bottom: "res56b0_branch2a"
  top: "res56b0_branch2a"
}
layer {
  name: "res56b0_branch2b"
  type: "Convolution"
  bottom: "res56b0_branch2a"
  top: "res56b0_branch2b"
  param {
    lr_mult: 1
    decay_mult: 1
  }
  param {
    lr_mult: 2
    decay_mult: 0
  }
  convolution_param {
    num_output: 128
    pad: 1
    kernel_size: 3
    stride: 1
    weight_filler {
      type: "xavier"
      std: 0.01
    }
    bias_filler {
      type: "constant"
      value: 0
    }
  }
}
layer {
  name: "res56b0_branch2b_bn"
  type: "BatchNorm"
  bottom: "res56b0_branch2b"
  top: "res56b0_branch2b"
  batch_norm_param {
    use_global_stats: false
  }
}
layer {
  name: "res56b0_branch2b_scale"
  type: "Scale"
  bottom: "res56b0_branch2b"
  top: "res56b0_branch2b"
  scale_param {
    bias_term: true
  }
}
layer {
  name: "res56b0_branch2b_relu"
  type: "ReLU"
  bottom: "res56b0_branch2b"
  top: "res56b0_branch2b"
}
layer {
  name: "res56b0_branch2c"
  type: "Convolution"
  bottom: "res56b0_branch2b"
  top: "res56b0_branch2c"
  param {
    lr_mult: 1
    decay_mult: 1
  }
  param {
    lr_mult: 2
    decay_mult: 0
  }
  convolution_param {
    num_output: 128
    pad: 0
    kernel_size: 1
    stride: 1
    weight_filler {
      type: "xavier"
      std: 0.01
    }
    bias_filler {
      type: "constant"
      value: 0.2
    }
  }
}
layer {
  name: "res56b0_branch2c_bn"
  type: "BatchNorm"
  bottom: "res56b0_branch2c"
  top: "res56b0_branch2c"
  batch_norm_param {
    use_global_stats: false
  }
}
layer {
  name: "res56b0_branch2c_scale"
  type: "Scale"
  bottom: "res56b0_branch2c"
  top: "res56b0_branch2c"
  scale_param {
    bias_term: true
  }
}
layer {
  name: "res56b0"
  type: "Eltwise"
  bottom: "res55b0"
  bottom: "res56b0_branch2c"
  top: "res56b0"
  eltwise_param {
    operation: SUM
  }
}
layer {
  name: "res56b0_relu"
  type: "ReLU"
  bottom: "res56b0"
  top: "res56b0"
}
layer {
  name: "deconv12"
  type: "Deconvolution"
  bottom: "res56b0"
  top: "deconv12"
  param {
    lr_mult: 0
    decay_mult: 0
  }
  convolution_param {
    num_output: 128
    bias_term: false
    pad: 1
    kernel_size: 4
    stride: 2
    weight_filler {
      type: "bilinear"
    }
  }
}
layer {
  name: "add18"
  type: "Eltwise"
  bottom: "res53b0"
  bottom: "deconv12"
  top: "add18"
  eltwise_param {
    operation: SUM
  }
}
layer {
  name: "res57b0_branch2a"
  type: "Convolution"
  bottom: "add18"
  top: "res57b0_branch2a"
  param {
    lr_mult: 1
    decay_mult: 1
  }
  param {
    lr_mult: 2
    decay_mult: 0
  }
  convolution_param {
    num_output: 128
    pad: 0
    kernel_size: 1
    stride: 1
    weight_filler {
      type: "xavier"
      std: 0.01
    }
    bias_filler {
      type: "constant"
      value: 0
    }
  }
}
layer {
  name: "res57b0_branch2a_bn"
  type: "BatchNorm"
  bottom: "res57b0_branch2a"
  top: "res57b0_branch2a"
  batch_norm_param {
    use_global_stats: false
  }
}
layer {
  name: "res57b0_branch2a_scale"
  type: "Scale"
  bottom: "res57b0_branch2a"
  top: "res57b0_branch2a"
  scale_param {
    bias_term: true
  }
}
layer {
  name: "res57b0_branch2a_relu"
  type: "ReLU"
  bottom: "res57b0_branch2a"
  top: "res57b0_branch2a"
}
layer {
  name: "res57b0_branch2b"
  type: "Convolution"
  bottom: "res57b0_branch2a"
  top: "res57b0_branch2b"
  param {
    lr_mult: 1
    decay_mult: 1
  }
  param {
    lr_mult: 2
    decay_mult: 0
  }
  convolution_param {
    num_output: 128
    pad: 1
    kernel_size: 3
    stride: 1
    weight_filler {
      type: "xavier"
      std: 0.01
    }
    bias_filler {
      type: "constant"
      value: 0
    }
  }
}
layer {
  name: "res57b0_branch2b_bn"
  type: "BatchNorm"
  bottom: "res57b0_branch2b"
  top: "res57b0_branch2b"
  batch_norm_param {
    use_global_stats: false
  }
}
layer {
  name: "res57b0_branch2b_scale"
  type: "Scale"
  bottom: "res57b0_branch2b"
  top: "res57b0_branch2b"
  scale_param {
    bias_term: true
  }
}
layer {
  name: "res57b0_branch2b_relu"
  type: "ReLU"
  bottom: "res57b0_branch2b"
  top: "res57b0_branch2b"
}
layer {
  name: "res57b0_branch2c"
  type: "Convolution"
  bottom: "res57b0_branch2b"
  top: "res57b0_branch2c"
  param {
    lr_mult: 1
    decay_mult: 1
  }
  param {
    lr_mult: 2
    decay_mult: 0
  }
  convolution_param {
    num_output: 128
    pad: 0
    kernel_size: 1
    stride: 1
    weight_filler {
      type: "xavier"
      std: 0.01
    }
    bias_filler {
      type: "constant"
      value: 0.2
    }
  }
}
layer {
  name: "res57b0_branch2c_bn"
  type: "BatchNorm"
  bottom: "res57b0_branch2c"
  top: "res57b0_branch2c"
  batch_norm_param {
    use_global_stats: false
  }
}
layer {
  name: "res57b0_branch2c_scale"
  type: "Scale"
  bottom: "res57b0_branch2c"
  top: "res57b0_branch2c"
  scale_param {
    bias_term: true
  }
}
layer {
  name: "res57b0"
  type: "Eltwise"
  bottom: "add18"
  bottom: "res57b0_branch2c"
  top: "res57b0"
  eltwise_param {
    operation: SUM
  }
}
layer {
  name: "res57b0_relu"
  type: "ReLU"
  bottom: "res57b0"
  top: "res57b0"
}
layer {
  name: "deconv13"
  type: "Deconvolution"
  bottom: "res57b0"
  top: "deconv13"
  param {
    lr_mult: 0
    decay_mult: 0
  }
  convolution_param {
    num_output: 128
    bias_term: false
    pad: 1
    kernel_size: 4
    stride: 2
    weight_filler {
      type: "bilinear"
    }
  }
}
layer {
  name: "add19"
  type: "Eltwise"
  bottom: "res51b0"
  bottom: "deconv13"
  top: "add19"
  eltwise_param {
    operation: SUM
  }
}
layer {
  name: "res58b0_branch2a"
  type: "Convolution"
  bottom: "add19"
  top: "res58b0_branch2a"
  param {
    lr_mult: 1
    decay_mult: 1
  }
  param {
    lr_mult: 2
    decay_mult: 0
  }
  convolution_param {
    num_output: 128
    pad: 0
    kernel_size: 1
    stride: 1
    weight_filler {
      type: "xavier"
      std: 0.01
    }
    bias_filler {
      type: "constant"
      value: 0
    }
  }
}
layer {
  name: "res58b0_branch2a_bn"
  type: "BatchNorm"
  bottom: "res58b0_branch2a"
  top: "res58b0_branch2a"
  batch_norm_param {
    use_global_stats: false
  }
}
layer {
  name: "res58b0_branch2a_scale"
  type: "Scale"
  bottom: "res58b0_branch2a"
  top: "res58b0_branch2a"
  scale_param {
    bias_term: true
  }
}
layer {
  name: "res58b0_branch2a_relu"
  type: "ReLU"
  bottom: "res58b0_branch2a"
  top: "res58b0_branch2a"
}
layer {
  name: "res58b0_branch2b"
  type: "Convolution"
  bottom: "res58b0_branch2a"
  top: "res58b0_branch2b"
  param {
    lr_mult: 1
    decay_mult: 1
  }
  param {
    lr_mult: 2
    decay_mult: 0
  }
  convolution_param {
    num_output: 128
    pad: 1
    kernel_size: 3
    stride: 1
    weight_filler {
      type: "xavier"
      std: 0.01
    }
    bias_filler {
      type: "constant"
      value: 0
    }
  }
}
layer {
  name: "res58b0_branch2b_bn"
  type: "BatchNorm"
  bottom: "res58b0_branch2b"
  top: "res58b0_branch2b"
  batch_norm_param {
    use_global_stats: false
  }
}
layer {
  name: "res58b0_branch2b_scale"
  type: "Scale"
  bottom: "res58b0_branch2b"
  top: "res58b0_branch2b"
  scale_param {
    bias_term: true
  }
}
layer {
  name: "res58b0_branch2b_relu"
  type: "ReLU"
  bottom: "res58b0_branch2b"
  top: "res58b0_branch2b"
}
layer {
  name: "res58b0_branch2c"
  type: "Convolution"
  bottom: "res58b0_branch2b"
  top: "res58b0_branch2c"
  param {
    lr_mult: 1
    decay_mult: 1
  }
  param {
    lr_mult: 2
    decay_mult: 0
  }
  convolution_param {
    num_output: 128
    pad: 0
    kernel_size: 1
    stride: 1
    weight_filler {
      type: "xavier"
      std: 0.01
    }
    bias_filler {
      type: "constant"
      value: 0.2
    }
  }
}
layer {
  name: "res58b0_branch2c_bn"
  type: "BatchNorm"
  bottom: "res58b0_branch2c"
  top: "res58b0_branch2c"
  batch_norm_param {
    use_global_stats: false
  }
}
layer {
  name: "res58b0_branch2c_scale"
  type: "Scale"
  bottom: "res58b0_branch2c"
  top: "res58b0_branch2c"
  scale_param {
    bias_term: true
  }
}
layer {
  name: "res58b0"
  type: "Eltwise"
  bottom: "add19"
  bottom: "res58b0_branch2c"
  top: "res58b0"
  eltwise_param {
    operation: SUM
  }
}
layer {
  name: "res58b0_relu"
  type: "ReLU"
  bottom: "res58b0"
  top: "res58b0"
}
layer {
  name: "deconv14"
  type: "Deconvolution"
  bottom: "res58b0"
  top: "deconv14"
  param {
    lr_mult: 0
    decay_mult: 0
  }
  convolution_param {
    num_output: 128
    bias_term: false
    pad: 1
    kernel_size: 4
    stride: 2
    weight_filler {
      type: "bilinear"
    }
  }
}
layer {
  name: "add20"
  type: "Eltwise"
  bottom: "res49b0"
  bottom: "deconv14"
  top: "add20"
  eltwise_param {
    operation: SUM
  }
}
layer {
  name: "res59b0_branch2a"
  type: "Convolution"
  bottom: "add20"
  top: "res59b0_branch2a"
  param {
    lr_mult: 1
    decay_mult: 1
  }
  param {
    lr_mult: 2
    decay_mult: 0
  }
  convolution_param {
    num_output: 128
    pad: 0
    kernel_size: 1
    stride: 1
    weight_filler {
      type: "xavier"
      std: 0.01
    }
    bias_filler {
      type: "constant"
      value: 0
    }
  }
}
layer {
  name: "res59b0_branch2a_bn"
  type: "BatchNorm"
  bottom: "res59b0_branch2a"
  top: "res59b0_branch2a"
  batch_norm_param {
    use_global_stats: false
  }
}
layer {
  name: "res59b0_branch2a_scale"
  type: "Scale"
  bottom: "res59b0_branch2a"
  top: "res59b0_branch2a"
  scale_param {
    bias_term: true
  }
}
layer {
  name: "res59b0_branch2a_relu"
  type: "ReLU"
  bottom: "res59b0_branch2a"
  top: "res59b0_branch2a"
}
layer {
  name: "res59b0_branch2b"
  type: "Convolution"
  bottom: "res59b0_branch2a"
  top: "res59b0_branch2b"
  param {
    lr_mult: 1
    decay_mult: 1
  }
  param {
    lr_mult: 2
    decay_mult: 0
  }
  convolution_param {
    num_output: 128
    pad: 1
    kernel_size: 3
    stride: 1
    weight_filler {
      type: "xavier"
      std: 0.01
    }
    bias_filler {
      type: "constant"
      value: 0
    }
  }
}
layer {
  name: "res59b0_branch2b_bn"
  type: "BatchNorm"
  bottom: "res59b0_branch2b"
  top: "res59b0_branch2b"
  batch_norm_param {
    use_global_stats: false
  }
}
layer {
  name: "res59b0_branch2b_scale"
  type: "Scale"
  bottom: "res59b0_branch2b"
  top: "res59b0_branch2b"
  scale_param {
    bias_term: true
  }
}
layer {
  name: "res59b0_branch2b_relu"
  type: "ReLU"
  bottom: "res59b0_branch2b"
  top: "res59b0_branch2b"
}
layer {
  name: "res59b0_branch2c"
  type: "Convolution"
  bottom: "res59b0_branch2b"
  top: "res59b0_branch2c"
  param {
    lr_mult: 1
    decay_mult: 1
  }
  param {
    lr_mult: 2
    decay_mult: 0
  }
  convolution_param {
    num_output: 128
    pad: 0
    kernel_size: 1
    stride: 1
    weight_filler {
      type: "xavier"
      std: 0.01
    }
    bias_filler {
      type: "constant"
      value: 0.2
    }
  }
}
layer {
  name: "res59b0_branch2c_bn"
  type: "BatchNorm"
  bottom: "res59b0_branch2c"
  top: "res59b0_branch2c"
  batch_norm_param {
    use_global_stats: false
  }
}
layer {
  name: "res59b0_branch2c_scale"
  type: "Scale"
  bottom: "res59b0_branch2c"
  top: "res59b0_branch2c"
  scale_param {
    bias_term: true
  }
}
layer {
  name: "res59b0"
  type: "Eltwise"
  bottom: "add20"
  bottom: "res59b0_branch2c"
  top: "res59b0"
  eltwise_param {
    operation: SUM
  }
}
layer {
  name: "res59b0_relu"
  type: "ReLU"
  bottom: "res59b0"
  top: "res59b0"
}
layer {
  name: "deconv15"
  type: "Deconvolution"
  bottom: "res59b0"
  top: "deconv15"
  param {
    lr_mult: 0
    decay_mult: 0
  }
  convolution_param {
    num_output: 128
    bias_term: false
    pad: 1
    kernel_size: 4
    stride: 2
    weight_filler {
      type: "bilinear"
    }
  }
}
layer {
  name: "add21"
  type: "Eltwise"
  bottom: "res47b0"
  bottom: "deconv15"
  top: "add21"
  eltwise_param {
    operation: SUM
  }
}
layer {
  name: "res60b0_branch2a"
  type: "Convolution"
  bottom: "add21"
  top: "res60b0_branch2a"
  param {
    lr_mult: 1
    decay_mult: 1
  }
  param {
    lr_mult: 2
    decay_mult: 0
  }
  convolution_param {
    num_output: 128
    pad: 0
    kernel_size: 1
    stride: 1
    weight_filler {
      type: "xavier"
      std: 0.01
    }
    bias_filler {
      type: "constant"
      value: 0
    }
  }
}
layer {
  name: "res60b0_branch2a_bn"
  type: "BatchNorm"
  bottom: "res60b0_branch2a"
  top: "res60b0_branch2a"
  batch_norm_param {
    use_global_stats: false
  }
}
layer {
  name: "res60b0_branch2a_scale"
  type: "Scale"
  bottom: "res60b0_branch2a"
  top: "res60b0_branch2a"
  scale_param {
    bias_term: true
  }
}
layer {
  name: "res60b0_branch2a_relu"
  type: "ReLU"
  bottom: "res60b0_branch2a"
  top: "res60b0_branch2a"
}
layer {
  name: "res60b0_branch2b"
  type: "Convolution"
  bottom: "res60b0_branch2a"
  top: "res60b0_branch2b"
  param {
    lr_mult: 1
    decay_mult: 1
  }
  param {
    lr_mult: 2
    decay_mult: 0
  }
  convolution_param {
    num_output: 128
    pad: 1
    kernel_size: 3
    stride: 1
    weight_filler {
      type: "xavier"
      std: 0.01
    }
    bias_filler {
      type: "constant"
      value: 0
    }
  }
}
layer {
  name: "res60b0_branch2b_bn"
  type: "BatchNorm"
  bottom: "res60b0_branch2b"
  top: "res60b0_branch2b"
  batch_norm_param {
    use_global_stats: false
  }
}
layer {
  name: "res60b0_branch2b_scale"
  type: "Scale"
  bottom: "res60b0_branch2b"
  top: "res60b0_branch2b"
  scale_param {
    bias_term: true
  }
}
layer {
  name: "res60b0_branch2b_relu"
  type: "ReLU"
  bottom: "res60b0_branch2b"
  top: "res60b0_branch2b"
}
layer {
  name: "res60b0_branch2c"
  type: "Convolution"
  bottom: "res60b0_branch2b"
  top: "res60b0_branch2c"
  param {
    lr_mult: 1
    decay_mult: 1
  }
  param {
    lr_mult: 2
    decay_mult: 0
  }
  convolution_param {
    num_output: 128
    pad: 0
    kernel_size: 1
    stride: 1
    weight_filler {
      type: "xavier"
      std: 0.01
    }
    bias_filler {
      type: "constant"
      value: 0.2
    }
  }
}
layer {
  name: "res60b0_branch2c_bn"
  type: "BatchNorm"
  bottom: "res60b0_branch2c"
  top: "res60b0_branch2c"
  batch_norm_param {
    use_global_stats: false
  }
}
layer {
  name: "res60b0_branch2c_scale"
  type: "Scale"
  bottom: "res60b0_branch2c"
  top: "res60b0_branch2c"
  scale_param {
    bias_term: true
  }
}
layer {
  name: "res60b0"
  type: "Eltwise"
  bottom: "add21"
  bottom: "res60b0_branch2c"
  top: "res60b0"
  eltwise_param {
    operation: SUM
  }
}
layer {
  name: "res60b0_relu"
  type: "ReLU"
  bottom: "res60b0"
  top: "res60b0"
}
layer {
  name: "conv13"
  type: "Convolution"
  bottom: "res60b0"
  top: "conv13"
  param {
    lr_mult: 1
    decay_mult: 1
  }
  param {
    lr_mult: 2
    decay_mult: 0
  }
  convolution_param {
    num_output: 128
    pad: 0
    kernel_size: 1
    stride: 1
    weight_filler {
      type: "xavier"
      std: 0.01
    }
    bias_filler {
      type: "constant"
      value: 0
    }
  }
}
layer {
  name: "bn4"
  type: "BatchNorm"
  bottom: "conv13"
  top: "conv13"
  batch_norm_param {
    use_global_stats: false
  }
}
layer {
  name: "scale4"
  type: "Scale"
  bottom: "conv13"
  top: "conv13"
  scale_param {
    bias_term: true
  }
}
layer {
  name: "relu4"
  type: "ReLU"
  bottom: "conv13"
  top: "conv13"
}
layer {
  name: "conv14"
  type: "Convolution"
  bottom: "conv13"
  top: "conv14"
  param {
    lr_mult: 1
    decay_mult: 1
  }
  param {
    lr_mult: 2
    decay_mult: 0
  }
  convolution_param {
    num_output: 22
    pad: 0
    kernel_size: 1
    stride: 1
    weight_filler {
      type: "xavier"
      std: 0.01
    }
    bias_filler {
      type: "constant"
      value: 0
    }
  }
}
layer {
  name: "loss3"
  type: "EuclideanLoss"
  bottom: "conv14"
  bottom: "label_heat"
  top: "loss3"
}
