
name: "large_SqueezeNet"
layer {
    name: "data"
    type: "Data"
    top: "data"
    top: "label"
    include {
    phase: TRAIN
  }
  transform_param {
    mirror: true
    crop_size: 256
    mean_value: 104
    mean_value: 117
    mean_value: 123
  }
  data_param {
    source: "/ssd/dataset/ilsvrc12_train_lmdb/"
    batch_size: 64
    backend: LMDB
  }
}
layer {
  name: "data"
  type: "Data"
  top: "data"
  top: "label"
  include {
    phase: TEST
  }
  transform_param {
    mirror: false
    crop_size: 256
    mean_value: 104
    mean_value: 117
    mean_value: 123
  }
  data_param {
    source: "/ssd/dataset/ilsvrc12_val_lmdb/"
    batch_size: 1
    backend: LMDB
  }
}
    
layer {
  name: "conv1"
  type: "Convolution"
  bottom: "data"
  top: "conv1"
  param {
    lr_mult: 1
    decay_mult: 1
  }
  param {
     lr_mult: 2
     decay_mult: 0
  }
  convolution_param {
    num_output: 32
    pad: 1
    kernel_size: 3
    stride: 1
    weight_filler {
      type: "xavier"
    }
    bias_filler {
      type: "constant"
      value: 0
    }
  }
}
layer {
  name: "conv1_relu"
  type: "ReLU"
  bottom: "conv1"
  top: "conv1"
}
layer {
  name: "pool1"
  type: "Pooling"
  bottom: "conv1"
  top: "pool1"
  pooling_param {
    pool: MAX
    kernel_size: 2
    stride: 2
  }
}
layer {
  name: "2/squeeze1x1"
  type: "Convolution"
  bottom: "pool1"
  top: "2/squeeze1x1"
  param {
    lr_mult: 1
    decay_mult: 1
  }
  param {
     lr_mult: 2
     decay_mult: 0
  }
  convolution_param {
    num_output: 16
    pad: 0
    kernel_size: 1
    stride: 1
    weight_filler {
      type: "xavier"
    }
    bias_filler {
      type: "constant"
      value: 0
    }
  }
}
layer {
  name: "2/squeeze1x1_relu"
  type: "ReLU"
  bottom: "2/squeeze1x1"
  top: "2/squeeze1x1"
}
layer {
  name: "2/expand1x1"
  type: "Convolution"
  bottom: "2/squeeze1x1"
  top: "2/expand1x1"
  param {
    lr_mult: 1
    decay_mult: 1
  }
  param {
     lr_mult: 2
     decay_mult: 0
  }
  convolution_param {
    num_output: 64
    pad: 0
    kernel_size: 1
    stride: 1
    weight_filler {
      type: "xavier"
    }
    bias_filler {
      type: "constant"
      value: 0
    }
  }
}
layer {
  name: "2/expand1x1_relu"
  type: "ReLU"
  bottom: "2/expand1x1"
  top: "2/expand1x1"
}
layer {
  name: "2/expand3x3"
  type: "Convolution"
  bottom: "2/squeeze1x1"
  top: "2/expand3x3"
  param {
    lr_mult: 1
    decay_mult: 1
  }
  param {
     lr_mult: 2
     decay_mult: 0
  }
  convolution_param {
    num_output: 64
    pad: 1
    kernel_size: 3
    stride: 1
    weight_filler {
      type: "xavier"
    }
    bias_filler {
      type: "constant"
      value: 0
    }
  }
}
layer {
  name: "2/expand3x3_relu"
  type: "ReLU"
  bottom: "2/expand3x3"
  top: "2/expand3x3"
}
    layer{
    name: "2/concat"
    type: "Concat"
    bottom: "2/expand3x3"
    bottom: "2/expand1x1"
    top: "2/concat"
    }
layer {
  name: "2/bypassConv"
  type: "Convolution"
  bottom: "pool1"
  top: "2/bypassConv"
  param {
    lr_mult: 1
    decay_mult: 1
  }
  param {
     lr_mult: 2
     decay_mult: 0
  }
  convolution_param {
    num_output: 128
    pad: 0
    kernel_size: 1
    stride: 1
    weight_filler {
      type: "xavier"
    }
    bias_filler {
      type: "constant"
      value: 0
    }
  }
}
layer {
  name: "2/bypassRelu"
  type: "ReLU"
  bottom: "2/bypassConv"
  top: "2/bypassConv"
}
layer {
  name: "bypass_2"
  type: "Eltwise"
  bottom: "2/concat"
  bottom: "2/bypassConv"
  top: "2/end"
  eltwise_param {
    operation: SUM
  }
}
layer {
  name: "3/squeeze1x1"
  type: "Convolution"
  bottom: "2/end"
  top: "3/squeeze1x1"
  param {
    lr_mult: 1
    decay_mult: 1
  }
  param {
     lr_mult: 2
     decay_mult: 0
  }
  convolution_param {
    num_output: 16
    pad: 0
    kernel_size: 1
    stride: 1
    weight_filler {
      type: "xavier"
    }
    bias_filler {
      type: "constant"
      value: 0
    }
  }
}
layer {
  name: "3/squeeze1x1_relu"
  type: "ReLU"
  bottom: "3/squeeze1x1"
  top: "3/squeeze1x1"
}
layer {
  name: "3/expand1x1"
  type: "Convolution"
  bottom: "3/squeeze1x1"
  top: "3/expand1x1"
  param {
    lr_mult: 1
    decay_mult: 1
  }
  param {
     lr_mult: 2
     decay_mult: 0
  }
  convolution_param {
    num_output: 64
    pad: 0
    kernel_size: 1
    stride: 1
    weight_filler {
      type: "xavier"
    }
    bias_filler {
      type: "constant"
      value: 0
    }
  }
}
layer {
  name: "3/expand1x1_relu"
  type: "ReLU"
  bottom: "3/expand1x1"
  top: "3/expand1x1"
}
layer {
  name: "3/expand3x3"
  type: "Convolution"
  bottom: "3/squeeze1x1"
  top: "3/expand3x3"
  param {
    lr_mult: 1
    decay_mult: 1
  }
  param {
     lr_mult: 2
     decay_mult: 0
  }
  convolution_param {
    num_output: 64
    pad: 1
    kernel_size: 3
    stride: 1
    weight_filler {
      type: "xavier"
    }
    bias_filler {
      type: "constant"
      value: 0
    }
  }
}
layer {
  name: "3/expand3x3_relu"
  type: "ReLU"
  bottom: "3/expand3x3"
  top: "3/expand3x3"
}
    layer{
    name: "3/concat"
    type: "Concat"
    bottom: "3/expand3x3"
    bottom: "3/expand1x1"
    top: "3/concat"
    }
layer {
  name: "bypass_3"
  type: "Eltwise"
  bottom: "3/concat"
  bottom: "2/end"
  top: "3/end"
  eltwise_param {
    operation: SUM
  }
}
layer {
  name: "pool2"
  type: "Pooling"
  bottom: "3/end"
  top: "pool2"
  pooling_param {
    pool: MAX
    kernel_size: 2
    stride: 2
  }
}